DLRV_SignLanguageToText/Code1/checkpoint_collected.pth (torch_old, 227724 bytes, 12 tensors)

conv1.weight f4 [6, 1, 3, 3]
0	0x3e8d6ac9	0.27620533
1	0xbdd82ad1	-0.105550416
2	0x3e9aa9cd	0.30207673
3	0x3de7cc55	0.1131827
4	0xbe005c5a	-0.1253523
5	0x3e6b03d2	0.22950676
6	0xbc886440	-0.016649365
7	0xbe06d19d	-0.13165899
8	0xbe9b480f	-0.30328414
9	0xbe819940	-0.25312233
10	0xbe7c33de	-0.24629161
11	0xbd82bbd3	-0.06383481
12	0xbe8c85c7	-0.27445814
13	0xbe8fec68	-0.2811005
14	0x3d9bb9d7	0.076038055
15	0x3deb44d7	0.114877395
16	0xbd0c09bf	-0.034188982
17	0xbe51825e	-0.20459887
18	0xbe8d7a4e	-0.27632374
19	0x3e201f06	0.15636835
20	0xbe7b2444	-0.24525553
21	0xbd7caa46	-0.061685823
22	0x3e8a586d	0.2702059
23	0x3e7b6846	0.24551496
24	0xbc81964a	-0.015818734
25	0x3e83ac8a	0.25717574
26	0xbe82163e	-0.25407594
27	0xbe021970	-0.12705016
28	0xbb7768c1	-0.0037751647
29	0x3dcd227f	0.10016345
30	0x3dbcd47f	0.09220218
31	0x3e8a05de	0.269576
32	0x3de091b2	0.10965289
33	0xbdc0f136	-0.09421007
34	0xbe285c85	-0.16441543
35	0xbe01f750	-0.12691998
36	0x3dc1ac1a	0.09456654
37	0xbc59e6f3	-0.0132996915
38	0x3e817d9a	0.2529114
39	0xbde08253	-0.10962357
40	0xbe41a66b	-0.1891114
41	0x3d839472	0.06424798
42	0xbe3ea704	-0.18618399
43	0x3e686efe	0.2269859
44	0xbe3e6106	-0.18591699
45	0x3ec16f8b	0.37780413
46	0xbe64edfe	-0.22356412
47	0x3e09c9b3	0.13455848
48	0x3e995865	0.29950252
49	0x3e1b75db	0.15181677
50	0x3ec601d6	0.38673276
51	0x3e7771df	0.24164532
52	0xbdf74d1d	-0.12075255
53	0xbe0b8e2d	-0.13628455

conv1.bias f4 [6]
0	0x3e8519f5	0.25996366
1	0x3de97182	0.11398603
2	0x3ea6fc14	0.32614195
3	0xbe3644fc	-0.17799753
4	0x3ea659c1	0.32490352
5	0x3e479662	0.1949096

conv2.weight f4 [6, 6, 3, 3]
0	0xbc26ea6d	-0.010187727
1	0xbb6d458c	-0.0036204783
2	0x3d98aac8	0.07454449
3	0x3ddbf6cb	0.107404314
4	0x3d49267e	0.049108975
5	0xbdc66391	-0.096869595
6	0x3d0fe631	0.035131637
7	0xbdcb0dfb	-0.09914776
8	0xbdfa614e	-0.12225591
9	0x3d743e7a	0.059629895
10	0xbd1e7f58	-0.038695663
11	0xbdb5dff2	-0.08880605
12	0xbd27889b	-0.04090176
13	0x3d72c1ca	0.059266843
14	0x3df71694	0.12064853
15	0x3d42a72e	0.047522716
16	0x3d9ac152	0.07556404
17	0xbd220d43	-0.03956343
18	0xbd19f89b	-0.037590604
19	0x3d8ec532	0.06971206
20	0xbdfb72ea	-0.122777775
21	0xbdc998ca	-0.09843595
22	0x3d851e01	0.064998634
23	0x3cfb23a4	0.030656643
24	0x3d97cb8d	0.07411871
25	0x3dfd34e5	0.123636045
26	0x3d80a450	0.0628134
27	0xbcc6a467	-0.024248315
28	0x3e08aad3	0.13346414
29	0xbe09ecb0	-0.13469195
30	0xb9af70d6	-0.0003346267
31	0x3c14c674	0.009080518
32	0xbdfecbc4	-0.12441209
33	0xbda9a806	-0.08284001
34	0x3e078edd	0.13238092
35	0x3cbab523	0.02279145
36	0x3df297a7	0.11845332
37	0x3dd1057e	0.10206126
38	0xbdbcc674	-0.092175394
39	0x3b9c2e68	0.0047662742
40	0xbe0304ce	-0.12794802
41	0xbdc2590c	-0.094896406
42	0xbd94c044	-0.07263234
43	0x3cd5e690	0.026110917
44	0xbe03260e	-0.12807485
45	0x3e13d889	0.1443807
46	0x3e04a481	0.12953378
47	0x3dbaa860	0.09114146
48	0x3e0f678b	0.14004342
49	0x3d92f5d6	0.07175796
50	0x3d8436bd	0.06455753
51	0xbdcf5f6c	-0.10125622
52	0xbd89c49d	-0.06726954
53	0x3de37ef8	0.11108202
54	0x3dd096b2	0.10184993
55	0x3d3ca133	0.04605217
56	0xbd5d40d0	-0.05401689
57	0x3dd4fefc	0.10400197
58	0xbceba9db	-0.028767517
59	0xbdcc056b	-0.09961971
60	0x3d886a46	0.06660895
61	0xbd8a95f0	-0.067668796
62	0xbdd9fe2d	-0.10644183
63	0xbd975f19	-0.07391185
64	0xbc56ea20	-0.013117343
65	0xbdd429a0	-0.10359502
66	0x3e004d20	0.12529421
67	0x3dc4d14e	0.09610234
68	0xbd501316	-0.05079945
69	0xbdc5ac08	-0.09651953
70	0xbb3b311c	-0.0028563207
71	0x3dfdfbbc	0.1240153
72	0x3d256f38	0.04038927
73	0x3dae3a81	0.085072525
74	0xbdd868f5	-0.10566894
75	0x3c63f7c7	0.013914055
76	0xbdaebcc7	-0.085321
77	0x3db7bcef	0.08971583
78	0xbd6ac055	-0.05731233
79	0xbcb7bf29	-0.02243002
80	0xbd8d02b5	-0.06885282
81	0x3d627f4a	0.055297174
82	0xbcfbe818	-0.03075032
83	0x3e029797	0.1275314
84	0xbc630d25	-0.013858114
85	0x3d9c9da5	0.07647256
86	0x3d87bdd5	0.066280045
87	0xbcd954c9	-0.026529687
88	0xbba89d07	-0.0051456722
89	0xbdc0c27d	-0.09412096
90	0x3d95fac6	0.07323222
91	0xbe04414f	-0.12915538
92	0xbd3b8855	-0.045784313
93	0x3ded7779	0.11595053
94	0x3d4c202e	0.049835376
95	0x3dc5bdc1	0.09655333
96	0x3dbd7f77	0.092528276
97	0x3dfaae21	0.12240244
98	0xbd52a6af	-0.051428493
99	0x3e2791ad	0.16364165
100	0x3d73e33b	0.059542876
101	0x3e1460bb	0.14490025
102	0x3e0ffc27	0.14061032
103	0x3e025dba	0.12731066
104	0x3df1a8c4	0.117997676
105	0xbc8a6ce8	-0.016897634
106	0xbc9d552c	-0.019205652
107	0x3ccc0b36	0.02490769
108	0x3de13071	0.109955676
109	0xbdc72515	-0.0972387
110	0xba8d70b3	-0.0010791033
111	0xbda31e03	-0.07964709
112	0x3d2f731d	0.04283439
113	0x3d8f0e8a	0.06985195
114	0xbabfcef1	-0.0014633817
115	0xbddabf76	-0.106810495
116	0xbe0599e3	-0.13046984
117	0xbd22d4ac	-0.0397536
118	0xbdb143a9	-0.08655483
119	0x3d47f828	0.048820645
120	0x3dd97bc8	0.106193125
121	0xbdcec508	-0.100961745
122	0xbbf9f1a0	-0.007627681
123	0xbc261832	-0.010137605
124	0xbdad270f	-0.084547155
125	0x3d9c8103	0.076417945
126	0x3d9db909	0.07701308
127	0x3ae99c75	0.0017823117
128	0x3d1fde6b	0.039030474
129	0x3cf765fa	0.030199993
130	0xbdad9bb4	-0.08476964
131	0xbc0d3e0f	-0.008620753
132	0xbd740e8f	-0.059584197
133	0xbdb335a2	-0.08750464
134	0xbdea9f60	-0.114561796
135	0x3d801f69	0.06255991
136	0x3e017389	0.1264173
137	0xbdb86cfa	-0.09005161
138	0x3dbe64bc	0.09296557
139	0xbd245a42	-0.04012514
140	0xbe04765a	-0.12935773
141	0x3d881a9a	0.06645699
142	0xbdd7b8fb	-0.10533329
143	0x3d332e04	0.043745056
144	0xbdf10b96	-0.11769788
145	0xbddc1ef4	-0.10748091
146	0x3de18d77	0.110133104
147	0x3d6b4f01	0.05744839
148	0xbcd3fda2	-0.025877777
149	0xbcfd5772	-0.030925486
150	0xbc2c78a5	-0.010526811
151	0x3c4e86d4	0.012605388
152	0xbcd67938	-0.026180848
153	0x3d8a6c1c	0.067589015
154	0x3de428ce	0.111405954
155	0xbda79652	-0.08182968
156	0xbddb3a39	-0.107044645
157	0xbdd6c237	-0.10486262
158	0x3d07d412	0.03316123
159	0x3db14386	0.08655457
160	0xbd0bff4e	-0.034179024
161	0xbd7eef8c	-0.06224017
162	0x3d4af71c	0.049552068
163	0x3d621390	0.055194438
164	0x3df3c8c3	0.11903527
165	0x3bb64e4b	0.0055635325
166	0x3d051303	0.032488834
167	0x3ddc8c18	0.10768908
168	0x3dbd1bdc	0.092338294
169	0xbdf3aaa9	-0.11897785
170	0xbc052330	-0.008126065
171	0x3d79453f	0.060857054
172	0x38809705	6.131645e-05
173	0x3d8d88e3	0.06910875
174	0xbbc601ee	-0.0060427105
175	0x3d8aff01	0.067869194
176	0xbc6ae342	-0.014336409
177	0xbc087d27	-0.00833062
178	0xbcc0665c	-0.023486309
179	0xbd38f719	-0.045157526
180	0x3d335efa	0.04379175
181	0x3bdb2aa6	0.0066884337
182	0x3e0449fd	0.1291885
183	0xbca48275	-0.020081738
184	0x3d87b2fd	0.06625936
185	0x3daec691	0.08533967
186	0xbbb11ae9	-0.0054048193
187	0xbd69cb05	-0.05707838
188	0xbd5c7d7b	-0.053830605
189	0x3b8ee7f3	0.0043611466
190	0x3d75c212	0.059999533
191	0xbde827f0	-0.113357425
192	0xbdf9e873	-0.12202539
193	0x3d86a841	0.06575061
194	0xbd9f52d0	-0.07779467
195	0x3dc7a924	0.09749058
196	0xbd099d64	-0.033597365
197	0xbdd97ef7	-0.1061992
198	0xbd36fbbe	-0.044673674
199	0x3d0f93f6	0.035053216
200	0xbdcba639	-0.09943814
201	0xbdb1138b	-0.08646306
202	0xbd375e51	-0.04476768
203	0x3df5a6e5	0.11994723
204	0x3d193a62	0.037409194
205	0x3df30783	0.11866667
206	0xbdc90316	-0.09815042
207	0xbd9e21cd	-0.07721291
208	0x3d9023fa	0.07038112
209	0xbcbe3a4b	-0.023221156
210	0xbd694ce3	-0.05695809
211	0xbc547eeb	-0.012969713
212	0x3b597f3d	0.0033187412
213	0xbd9bb91f	-0.076036684
214	0x3d61d7e8	0.055137545
215	0x3daf292d	0.085527755
216	0xbdf63ed0	-0.12023699
217	0x3dfb08f1	0.12257565
218	0xbd1bb21b	-0.03801165
219	0x3e18bb81	0.14915277
220	0xbcdceb68	-0.02696772
221	0xbd70af50	-0.05876094
222	0x3d552588	0.052037746
223	0x3d5144ba	0.051090933
224	0x3cd61a5c	0.026135616
225	0xbdbf768a	-0.093487814
226	0xbe03cd55	-0.12871297
227	0x3d8b3f11	0.06799138
228	0xbe103211	-0.14081599
229	0x3dcb606c	0.099305004
230	0xbe06cd5d	-0.13164277
231	0x3dc49f2a	0.09600671
232	0xbd709361	-0.0587343
233	0x3e05bc62	0.13060144
234	0xbdac29e1	-0.08406425
235	0x3dd454b6	0.1036772
236	0x3ce766e6	0.028247308
237	0x3dd6c192	0.10486139
238	0xba9c0c5e	-0.0011905541
239	0xbd176e88	-0.036970645
240	0x3dfa0eb8	0.12209839
241	0xbd83e99c	-0.06441042
242	0xbccde5f7	-0.02513407
243	0xbc94322f	-0.018090336
244	0x3d6a08c2	0.05713726
245	0xbc535fb8	-0.012901239
246	0x3dc58efe	0.09646414
247	0x3da89157	0.082308464
248	0xbde95c33	-0.11394539
249	0xbd9c2833	-0.07624855
250	0x3d5eb888	0.0543752
251	0x3dc10c40	0.094261646
252	0xbdd1c0af	-0.102418296
253	0xbd63fc98	-0.055660814
254	0xbda06b46	-0.07832961
255	0xba0b6783	-0.00053178536

conv2.bias f4 [6]
0	0xbd686013	-0.05673225
1	0x3d5a4405	0.053287525
2	0xbda2e4be	-0.07953785
3	0x3cae0efa	0.021247376
4	0xbda4854f	-0.08033239
5	0x3d370a20	0.04468739

conv3.weight f4 [16, 6, 3, 3]
0	0xbdac59f7	-0.08415597
1	0x3dec2f48	0.11532456
2	0x3ddabdc5	0.10680727
3	0x3db57432	0.08860053
4	0x3dcd4205	0.10022358
5	0x3ded386d	0.11583028
6	0xbc155e72	-0.009116756
7	0xbd969cf9	-0.07354159
8	0x3dfb8442	0.122810856
9	0xbbcf1f8e	-0.0063209003
10	0x3dba0402	0.09082796
11	0x3e12679c	0.14297336
12	0x3e1088e5	0.14114721
13	0xbdbd8f2a	-0.09255822
14	0xbd0cb0b8	-0.03434822
15	0x3d9daf47	0.07699447
16	0x3dc54f02	0.0963421
17	0x3e0dbb43	0.13840966
18	0x3db97a1d	0.090564944
19	0xbe0b1ae4	-0.13584477
20	0xbd217206	-0.03941538
21	0xbb2ed230	-0.0026675574
22	0xbc6a7f2d	-0.014312548
23	0xbd6422d8	-0.055697292
24	0x3d985b37	0.07439273
25	0x3cd28559	0.02569835
26	0x3dbff5a6	0.093730256
27	0xbcce7339	-0.025201427
28	0x3d977877	0.07396024
29	0xbd71bea3	-0.059019696
30	0xbd0246f5	-0.03180595
31	0xbc9ff882	-0.019527677
32	0x3e0561c4	0.13025576
33	0x3b277158	0.0025549736
34	0x3d856602	0.06513597
35	0xbe0b05b4	-0.13576394
36	0x3d898383	0.06714537
37	0x3d8a7168	0.06759912
38	0xbd5afabc	-0.053461775
39	0xbb7c86b3	-0.0038532435
40	0x3d8f1cfa	0.06987949
41	0xbdd591e6	-0.104282185
42	0x3df4837c	0.11939141
43	0x3ce36cf6	0.027761918
44	0x3e051431	0.12995984
45	0x3c8e59ae	0.017376747
46	0x3d0cb9b2	0.03435678
47	0x3dc213cf	0.094764344
48	0x3e04c51a	0.12965813
49	0xbd71c5bd	-0.05902647
50	0xb94c114c	-0.000194614
51	0xbd823ef8	-0.063596666
52	0xbd7fdf65	-0.062468905
53	0x3d520e2e	0.051283054
54	0xbde06f1e	-0.10958694
55	0xbc0f5efc	-0.008750673
56	0x3da7d135	0.081942
57	0x3d905f20	0.07049394
58	0xbbf27ec7	-0.007400367
59	0xbd77c657	-0.060491886
60	0x3d1526a8	0.03641382
61	0x3dcece6d	0.10097966
62	0x3e11d2be	0.14240548
63	0x3c908074	0.017639376
64	0x3dd86079	0.10565276
65	0x3c330ae6	0.010927891
66	0x3e1da5e4	0.15395314
67	0xbcb821cd	-0.022477055
68	0xbd24dd1d	-0.040249933
69	0xbce66fbc	-0.028129451
70	0xbd207645	-0.03917529
71	0x3e1c28a1	0.15249874
72	0x3de73b93	0.1129066
73	0xbdbc49a4	-0.09193733
74	0xbdacadba	-0.08431573
75	0xbd857b17	-0.06517618
76	0x3d22159f	0.0395714
77	0xbcec8021	-0.02886969
78	0x3d517280	0.051134586
79	0xbe05222a	-0.13001314
80	0x3e021f72	0.12707308
81	0x3dfaafe8	0.12240583
82	0x3e003554	0.12520343
83	0xbd93e336	-0.072210714
84	0xbc115ecf	-0.008872702
85	0x3dfe9b0f	0.12431919
86	0xbd07c5b4	-0.03314753
87	0x3d1d8325	0.038455147
88	0xbe0308b6	-0.12796292
89	0xbdc5582e	-0.096359596
90	0x3d95c6e3	0.07313325
91	0x3ceb5feb	0.02873226
92	0x3c9a9bf7	0.018873198
93	0xbd9ce46f	-0.07660758
94	0xbd40dc52	-0.047085114
95	0x3d214f39	0.039382193
96	0x3dc811cf	0.09769022
97	0x3adb6d38	0.0016740924
98	0xbcbd5a2b	-0.023114285
99	0x3e20f40b	0.15718095
100	0x3e12d47f	0.14338873
101	0xbd9e61aa	-0.07733472
102	0xbcbf73c4	-0.023370631
103	0x3df7f742	0.121077076
104	0x3e1dbf6b	0.15405051
105	0xbd2c98c7	-0.042137887
106	0x3dcb3471	0.09922112
107	0xbdd1c796	-0.10243146
108	0x3e0a8850	0.13528562
109	0xbdadd706	-0.08488278
110	0xbdc38fb1	-0.09548891
111	0x3d426dae	0.04746788
112	0x3d8584af	0.06519448
113	0x3a286f3d	0.0006425267
114	0x3dc84cc0	0.09780264
115	0xbd4b3abf	-0.04961657
116	0xbcb791f2	-0.02240846
117	0xbd96f329	-0.07370598
118	0x3de35f7c	0.111021966
119	0xbc6b8649	-0.014375278
120	0xbcaf7a48	-0.021420613
121	0xbd31835d	-0.04333817
122	0x3d496f6c	0.049178526
123	0xbd8dd4f1	-0.06925381
124	0xbc21b7bb	-0.009870465
125	0xbe049fb4	-0.12951547
126	0xbdc098b4	-0.09404126
127	0x3dfc5ad0	0.123220086
128	0xbd98f87a	-0.07469268
129	0xbde7b9d9	-0.113147445
130	0xbd158f4d	-0.036513615
131	0xbd864c3f	-0.065575115
132	0x3c4192b0	0.011814758
133	0x3cb31a78	0.021863207
134	0xbd412cc8	-0.047161847
135	0xbd473ee1	-0.04864395
136	0x3d107ebe	0.03527712
137	0xbda8b119	-0.08236904
138	0xbd7d0bde	-0.061778896
139	0x3df6590f	0.12028705
140	0xbdb05cea	-0.08611472
141	0xbd4584a4	-0.0482222
142	0x3d7c8560	0.061650634
143	0x3df884ed	0.121347286
144	0xbbbc2fc7	-0.005743
145	0x3cdf7bba	0.027280677
146	0xbd0a50e5	-0.033768553
147	0x3e03fabc	0.12888616
148	0x3dc3f16a	0.095675305
149	0xbd59e590	-0.053197443
150	0x3b91de2f	0.004451535
151	0x3df249f0	0.11830509
152	0xbdb96b0f	-0.09053623
153	0xbd3fefdb	-0.046859603
154	0x3d970711	0.07374395
155	0xbde239b8	-0.11046165
156	0xbc0f211c	-0.008735921
157	0x3dae5195	0.08511654
158	0xbd8e3475	-0.06943599
159	0x3dacc5f4	0.08436194
160	0xbdbd43f1	-0.092414744
161	0x3d54c7ae	0.051948242
162	0x3d4beefa	0.049788453
163	0xbd42a7ec	-0.047523424
164	0x3dcbe61b	0.099559985
165	0x3c2f9c8b	0.010718475
166	0xbe03a066	-0.12854156
167	0xbd2236d4	-0.03960307
168	0x3e083f4d	0.13305397
169	0x3cb10034	0.021606542
170	0x3ddf34a4	0.10898712
171	0xbd199849	-0.037498746
172	0xbb34da6f	-0.0027596017
173	0xbdb3cd5b	-0.08779403
174	0x3d63766a	0.05553285
175	0xbdc1af9a	-0.094573215
176	0x3cb99af5	0.022656897
177	0x3d945df5	0.072444834
178	0x3d6b9f67	0.057525065
179	0x3dad5753	0.084639214
180	0x3d8fbdca	0.07018621
181	0x3d115f04	0.035491005
182	0x3dd26e56	0.10274951
183	0xbc417321	-0.011807234
184	0xbc3fe996	-0.011713406
185	0x3d305a6d	0.043054987
186	0x3cdcc5da	0.026949812
187	0xbda0d9d3	-0.07854047
188	0xbdfd6543	-0.1237283
189	0xbd1211fc	-0.035661682
190	0x3c49fbb8	0.012328081
191	0xbb9ce9a4	-0.0047885943
192	0x3da0857b	0.078379594
193	0x3df6638c	0.12030706
194	0xbdb1cb42	-0.086813465
195	0xbc9790ee	-0.018501725
196	0x3cf61eba	0.030043948
197	0xbd0306ce	-0.03198891
198	0x3d908ac6	0.07057719
199	0x3de9f1e4	0.1142309
200	0xbca62826	-0.020282816
201	0x3db58a08	0.08864218
202	0xbbd2b006	-0.006429675
203	0x3daf7122	0.085665
204	0x3dbae2b5	0.09125272
205	0xbde8dd4c	-0.11370334
206	0xbcabdea4	-0.020980187
207	0x3c65af4a	0.014018843
208	0x3d9f2741	0.07771159
209	0x3b08c5d4	0.0020869868
210	0x3e0e577a	0.13900557
211	0x3df91785	0.12162689
212	0x3df2b50b	0.118509375
213	0xbdc9daca	-0.09856184
214	0x3bfe68b7	0.007763948
215	0x3c56297f	0.013071417
216	0x3ddfab6d	0.10921369
217	0xbdcc3760	-0.099714994
218	0xbc468cce	-0.012118531
219	0xbccc50f0	-0.024940938
220	0x3bbdae94	0.0057886336
221	0x3cf523b8	0.029924259
222	0x3ca55f87	0.020187153
223	0x3dec762b	0.11545976
224	0x3cc0d128	0.023537233
225	0x3d828de6	0.06374721
226	0x3e06552d	0.1311843
227	0x3e0e58f1	0.13901116
228	0x3e027e9d	0.12743612
229	0xbd2efb9e	-0.04272043
230	0x3daebdea	0.08532317
231	0x3df3c7bc	0.11903331
232	0x3d7f051d	0.062260736
233	0xbccd4f00	-0.025062084
234	0x3de1c4a4	0.11023834
235	0xbcfe5df6	-0.031050663
236	0xbdf90265	-0.1215866
237	0x3debb348	0.115088046
238	0xbd9ffa87	-0.07811456
239	0x3c398506	0.011323219
240	0x3d7f5e08	0.062345535
241	0x3d3812ec	0.04493992
242	0x3d9059ac	0.070483536
243	0x3e04917d	0.12946124
244	0x3c5624fb	0.01307034
245	0x3d4f300a	0.050582923
246	0x3dab6203	0.083683036
247	0x3dfadd47	0.122492366
248	0xbcc4a4f2	-0.024004433
249	0xbdee6241	-0.11639834
250	0xbd55bea2	-0.052183755
251	0x3e0aee6e	0.13567516
252	0x3df52c70	0.119713664
253	0x3d5f56e0	0.05452621
254	0x3e1a3039	0.15057458
255	0xbcdac71d	-0.026706273

conv3.bias f4 [16]
0	0x3d544ea9	0.05183283
1	0x3d904b0e	0.070455655
2	0xbd9a354d	-0.075296976
3	0xbd739645	-0.05946948
4	0xbda23e56	-0.07922046
5	0x3dea63c0	0.11444807
6	0x3d9be609	0.07612235
7	0xbd129f70	-0.035796583
8	0xbd9979fd	-0.074939705
9	0x3d585e77	0.052824464
10	0xbd90bd47	-0.07067352
11	0x3d79fdd7	0.061033096
12	0x3e0f7852	0.14010742
13	0x3b92c863	0.0044794544
14	0xbce0ad88	-0.027426496
15	0x3d89b3fe	0.06723784

fc1.weight f4 [120, 400]
0	0x3d0b36c1	0.033987764
1	0xbc3db203	-0.011578086
2	0xbd028247	-0.031862523
3	0x3d3c9c58	0.04604754
4	0x3ca13b82	0.019681696
5	0x3d5720f5	0.052521665
6	0x3bf54bb4	0.007485831
7	0x3d04b4c1	0.032398943
8	0x3d3245cc	0.043523595
9	0x3b0f1ebf	0.0021838394
10	0xbcc23baa	-0.02371009
11	0x3abe7149	0.0014529611
12	0x3d649833	0.05580921
13	0x3d4d4cb5	0.05012198
14	0x3b771be9	0.0037705845
15	0xbcb75b62	-0.022382442
16	0xbd13b88c	-0.03606467
17	0x3d31248c	0.043247744
18	0x3cb9764a	0.022639412
19	0xbcb3b059	-0.021934675
20	0xbbcb6708	-0.0062073506
21	0xbd59d4bf	-0.053181406
22	0xbd8558fd	-0.06511114
23	0x3b0e5561	0.002171837
24	0x3aecb140	0.0018058196
25	0x3d54322d	0.051805664
26	0xbc4ccb7c	-0.012499686
27	0x3c53bd3c	0.012923535
28	0xbc917503	-0.01775599
29	0x3d222452	0.03958542
30	0xbd36e462	-0.044651397
31	0xbd150397	-0.036380377
32	0xbc901631	-0.017588707
33	0xbb0bab9f	-0.002131201
34	0xbcf8a679	-0.030352818
35	0x3c25252c	0.010079663
36	0x3d662087	0.056183364
37	0xbc99f7de	-0.01879495
38	0x3ce08dbd	0.027411336
39	0x3d24c856	0.040230118
40	0xbbb06c0c	-0.005383974
41	0x3c0852e0	0.00832054
42	0x3c3c3d42	0.011489214
43	0xbd522984	-0.051309124
44	0x3d2e56f2	0.042563386
45	0x3c22b49e	0.009930758
46	0xbcf551e3	-0.029946273
47	0xbd31c644	-0.04340197
48	0x3c5b336b	0.013378958
49	0xbcf16e3c	-0.02947151
50	0xbd166a18	-0.036722273
51	0x3bdb88f3	0.006699675
52	0x3c23fe8c	0.010009419
53	0x3cc03d4a	0.023466725
54	0xbc38d114	-0.011280317
55	0xbc13aa42	-0.009012761
56	0xbd285744	-0.041098848
57	0xbd085548	-0.033284456
58	0xbd146420	-0.0362283
59	0x3c8bfd76	0.017088633
60	0xbcff50c5	-0.031166444
61	0x3d36aee9	0.0446004
62	0xbc542b40	-0.012949765
63	0x3d349b61	0.044093493
64	0x3d1a7bc9	0.037715707
65	0x3cc951c2	0.024575118
66	0x3d2beec1	0.04197574
67	0xbcd06cca	-0.0254425
68	0x3c93db52	0.018048916
69	0x3c8f99b6	0.01752935
70	0x3d003d71	0.031308595
71	0x3d010809	0.031501804
72	0x3ac12a00	0.0014737248
73	0x3c8b3ec2	0.016997699
74	0x3d1ba04f	0.03799468
75	0xbd2e8fb6	-0.042617522
76	0x3d588b61	0.052867297
77	0x3d3fc174	0.04681535
78	0x3d2664fa	0.040623643
79	0x3c5b8939	0.013399416
80	0x3d1f6fef	0.038925108
81	0xbd0c9672	-0.034323163
82	0x3c6d111a	0.014469409
83	0xbcaef887	-0.021358741
84	0x3d47a930	0.048745334
85	0x3d1d6b8e	0.03843265
86	0xbcb833ed	-0.022485698
87	0x3d4adf97	0.04952964
88	0xbd36715f	-0.044541713
89	0x3d4f5c62	0.050625212
90	0xbc94a566	-0.018145274
91	0xbd0806c4	-0.033209577
92	0x3c0b69de	0.008509127
93	0x3ca7203b	0.02040111
94	0x3b2799df	0.0025573892
95	0xbd3b1cc1	-0.04568172
96	0x3c6110a8	0.013736881
97	0x3ced9290	0.02900055
98	0x3a781806	0.0009464029
99	0x3c874bf5	0.016515711
100	0xbcb6aaa2	-0.022298161
101	0xbce11ab0	-0.027478546
102	0x3bff502c	0.0077915397
103	0x3d80bd29	0.062860794
104	0x3d576c25	0.05259337
105	0xbbd33577	-0.0064455825
106	0x3d27f04c	0.04100065
107	0x3d2627e9	0.040565405
108	0x3cbce974	0.023060538
109	0xbcb1ab1e	-0.02168804
110	0xbd12689c	-0.035744295
111	0xbd2ad8d9	-0.04171071
112	0xbbae32be	-0.0053161075
113	0xbcf10da6	-0.029425453
114	0xbc6ad899	-0.0143338675
115	0x3d2410ed	0.040055204
116	0xbd13b217	-0.03605851
117	0xbd38fe4f	-0.045164403
118	0x3d1bf39a	0.038074113
119	0x3cf9f238	0.030511007
120	0xbcac64f3	-0.02104423
121	0x3be9878a	0.007126753
122	0xbd3ad5ae	-0.045613937
123	0x3d0a342a	0.033741154
124	0x3d06c85b	0.032905918
125	0xbd207e3d	-0.03918289
126	0x3be1b307	0.006887797
127	0xbd1f3b09	-0.03887466
128	0xbc170a41	-0.009218753
129	0xbca3d95d	-0.020001108
130	0x3d0d68b8	0.034523696
131	0x3c71f575	0.014767994
132	0xbd34801b	-0.044067483
133	0xbd316dfc	-0.04331778
134	0xbc57cc3d	-0.013171253
135	0xbd0c8f41	-0.034316305
136	0x3cd02714	0.025409259
137	0xbd0a8ca5	-0.033825535
138	0x3c0bdcdd	0.008536545
139	0xbca75b07	-0.020429147
140	0x3d2cd89d	0.042198766
141	0x3a4d8ea3	0.0007841384
142	0xbc418c9f	-0.011813312
143	0xbce76379	-0.028245674
144	0xbc5158a7	-0.012777484
145	0x3d31db9c	0.043422326
146	0x3c69c96e	0.014269216
147	0x3c49381a	0.012281442
148	0x3bdaba62	0.0066750506
149	0x3d5d5180	0.054032803
150	0xbcfe6553	-0.031054175
151	0x3ced8b38	0.028997049
152	0x3c49f5c0	0.012326658
153	0xbbd71316	-0.0065635545
154	0x3c985fea	0.018600423
155	0x3c3d8374	0.011566985
156	0x3ba15746	0.004923734
157	0xbd24e0ed	-0.04025357
158	0x3d2e1672	0.042501874
159	0xbba1165a	-0.0049159946
160	0x3d4f8f66	0.050673865
161	0x3caeb80a	0.021327991
162	0x3d040ce4	0.032238856
163	0x3cbfefea	0.02342983
164	0x3d3e2d1a	0.04642973
165	0xbceef9cb	-0.029171845
166	0x3c726b09	0.014796027
167	0x3d182d91	0.03715283
168	0xbc38775a	-0.011258924
169	0x3cfc5dd5	0.030806461
170	0x3b23aa8c	0.002497348
171	0x3c97f36e	0.018548694
172	0x3cf58092	0.029968534
173	0x3c85abbb	0.016317239
174	0xbd177afa	-0.036982514
175	0x3c038974	0.008028377
176	0xbd37671a	-0.04477606
177	0x3c9231c6	0.017846
178	0x3c3d7a14	0.01156475
179	0x3ced3b72	0.02895901
180	0x3d379ce9	0.044827376
181	0xbd31618a	-0.04330591
182	0x3c3a3478	0.011365049
183	0xbd17711b	-0.0369731
184	0xbc745268	-0.014912225
185	0xba4892c0	-0.0007651262
186	0xbd2d99af	-0.042382892
187	0xbcec3670	-0.028834552
188	0xbd2555a8	-0.04036489
189	0x3cb4a642	0.022051934
190	0x3d052827	0.032508995
191	0x3d2590ff	0.040421482
192	0x3bb1bc28	0.0054240413
193	0x3cc54bb6	0.024083953
194	0x3c960d7e	0.01831698
195	0xbcc4458a	-0.02395894
196	0x3b2878b0	0.00257067
197	0xbd17bd86	-0.037045978
198	0x3d069f07	0.032866504
199	0x3cb8a8c6	0.022541415
200	0x3cd2285c	0.02565401
201	0xbc91dcbd	-0.017805452
202	0xbd304a31	-0.043039504
203	0x3d36373b	0.044486266
204	0x3cd1966b	0.02558442
205	0x3c5b99c8	0.0134033635
206	0x3d12cc8a	0.035839595
207	0xbbf06064	-0.0073357094
208	0x3d3dca79	0.04633567
209	0x3c94ffc2	0.018188361
210	0x3d2af8fe	0.041741364
211	0xbb5be54a	-0.0033553415
212	0xbd18b288	-0.037279636
213	0xb916966f	-0.00014361156
214	0x3c84cdb5	0.01621137
215	0xbc5f938a	-0.013646016
216	0x3c31e268	0.010857202
217	0x3cd2ce4f	0.025733141
218	0x3be45010	0.006967552
219	0xbd0f2aa4	-0.034952775
220	0xbc2c260d	-0.010507119
221	0xbd2b6824	-0.041847363
222	0x3d460eb3	0.048353862
223	0x3cc26c14	0.023733176
224	0xbd3b69fe	-0.04575538
225	0x3c491623	0.012273344
226	0x3d42a5b1	0.047521297
227	0x3d0e576f	0.034751352
228	0x3d441171	0.047868196
229	0xbd19404a	-0.037414826
230	0x3c517850	0.012785032
231	0x3c133d50	0.008986786
232	0x3cdc9e43	0.026930934
233	0xbd39587c	-0.0452504
234	0xbbd3f716	-0.006468664
235	0xbb2a9a57	-0.0026031935
236	0x3cb9292b	0.022602638
237	0xbb60f99a	-0.0034328462
238	0x3d16093d	0.036629904
239	0xbd0393d8	-0.032123417
240	0x3d42908d	0.047501136
241	0xbcdcd5d7	-0.026957436
242	0xbaff4aac	-0.001947721
243	0xbc1a818a	-0.009430299
244	0x3ce43d92	0.02786139
245	0xbc1d3cbf	-0.0095970025
246	0xbcd0e11f	-0.025497971
247	0x3c71cbd4	0.014758069
248	0x3ca1dd8a	0.019758958
249	0xbcf016f9	-0.02930783
250	0xbb890e88	-0.0041826405
251	0x3c6397f8	0.013891213
252	0xb9ce020d	-0.0003929291
253	0x3d272f75	0.040816743
254	0x3d154b5a	0.036448814
255	0xbd1aa82c	-0.037758037

fc1.bias f4 [120]
0	0x3cb748d9	0.022373604
1	0xbb8bc5f0	-0.0042655393
2	0x3b391260	0.0028239712
3	0xbc894364	-0.016755767
4	0xbbac2da8	-0.005254466
5	0x3d240ebf	0.040053125
6	0xbccb7cb2	-0.024839733
7	0x3bac2545	0.0052534663
8	0x3d3e0b21	0.046397332
9	0x3c9532f1	0.018212767
10	0x3d3d56c0	0.04622531
11	0x3d225c87	0.039639022
12	0xbd3317bd	-0.04372381
13	0xbc3abea8	-0.011397995
14	0xbd2f9a62	-0.04287184
15	0x3b83217a	0.0040017935
16	0x3bd66189	0.006542389
17	0xbc532180	-0.012886405
18	0x3cf290ae	0.029610004
19	0xbd20b652	-0.039236374
20	0xbc4413d0	-0.011967614
21	0xbcf27815	-0.029598275
22	0xbc9a4666	-0.018832397
23	0xbbc59eea	-0.006030907
24	0xbd0b48e8	-0.034005076
25	0x3cdecb6e	0.027196612
26	0x3cd9e360	0.026597679
27	0xbd375ba7	-0.04476514
28	0x3d2c24a3	0.042027127
29	0x3ca10f1e	0.019660529
30	0x3cc10fdb	0.02356713
31	0xbb5373db	-0.00322651
32	0x3c8d9c8e	0.017286565
33	0x3d1eb0c4	0.038742796
34	0x3d0f56a3	0.034994733
35	0x3d36ce57	0.044630375
36	0xbce30c73	-0.027715897
37	0xbd1b6482	-0.03793765
38	0xbb8f9090	-0.004381247
39	0xbcc68b32	-0.024236295
40	0xbd1b3115	-0.037888605
41	0xbcce0b20	-0.02515179
42	0x3ac054cd	0.001467371
43	0xbbbcd343	-0.005762489
44	0x3cbb5a19	0.02287011
45	0x3b373350	0.0027954169
46	0x3d6271c9	0.055284295
47	0x3c3d0be6	0.011538481
48	0xbd5deb71	-0.054179613
49	0x3d792226	0.060823582
50	0xbcb21340	-0.021737695
51	0xbd532e00	-0.05155754
52	0xbd1b4cad	-0.03791492
53	0x3c596404	0.0132684745
54	0x3b99582b	0.0046797
55	0x3d260e1e	0.040540807
56	0x3d06903e	0.032852404
57	0x3d188081	0.037231926
58	0xbd139f09	-0.03604034
59	0x3cc619ac	0.024182163
60	0xbcadac2f	-0.021200268
61	0x3d62c891	0.055367056
62	0xbaf2dc95	-0.0018528873
63	0x3caa59b1	0.020794721
64	0xbc9b7d9e	-0.018980797
65	0xbd1bf5b4	-0.038076118
66	0xbd0896c6	-0.033346914
67	0x3bad9938	0.005297806
68	0x3d36db59	0.04464278
69	0xbd3dea95	-0.046366293
70	0xbd42ed50	-0.0475896
71	0x3d3517e9	0.044212256
72	0xbce43396	-0.02785663
73	0x3c88e9f9	0.01671313
74	0xbbf28d25	-0.0074020796
75	0x3bf89b9d	0.00758691
76	0x3d09d546	0.03365066
77	0x3c7989e7	0.015230632
78	0xbcd68b90	-0.026189595
79	0xbc4bd84d	-0.012441707
80	0x3cce42d3	0.025178349
81	0x3d1785e0	0.036992908
82	0x3c81f906	0.015865814
83	0xbcb37f40	-0.021911263
84	0xbd107933	-0.035271835
85	0x3c8cac8a	0.017172117
86	0xbb879ba1	-0.0041384255
87	0x3d167a7a	0.036737897
88	0xbc4f0f86	-0.012637978
89	0xbd4580bf	-0.048218485
90	0x3ba4292e	0.005009792
91	0xbd4a86b7	-0.04944488
92	0xbd305687	-0.04305127
93	0xbcf34a1a	-0.02969842
94	0x3d2dec75	0.04246183
95	0x3d348437	0.044071402
96	0xbb65937d	-0.0035030537
97	0xbc4020fe	-0.011726616
98	0xbd0b8cc2	-0.034069784
99	0x3ca7cd45	0.020483622
100	0x3b931d25	0.0044895583
101	0x3caa89ac	0.0208176
102	0x3cc27b37	0.023740394
103	0x3d0826cb	0.03324012
104	0xbd09a246	-0.03360202
105	0xbba7965b	-0.0051143593
106	0x3d2aeb65	0.041728396
107	0x3d1d516f	0.03840774
108	0x3d407889	0.04698995
109	0xba1bb400	-0.0005939603
110	0xbc84a778	-0.016193137
111	0xbd47ae3a	-0.04875014
112	0xbcfd0714	-0.030887164
113	0x3d525158	0.051347107
114	0xbcb7b5e4	-0.0224256
115	0x3c591ce7	0.01325152
116	0xbce81e7b	-0.028334847
117	0x3cb811ad	0.022469366
118	0x3d35c19e	0.0443741
119	0x3c36fc1f	0.011168509

fc2.weight f4 [48, 120]
0	0x3d96f68e	0.07371245
1	0x3c1090e0	0.008823603
2	0xbd18fcb2	-0.037350364
3	0xbda6c893	-0.08143725
4	0xbd4c38a4	-0.049858704
5	0xbccd16c0	-0.025035262
6	0xbd8f3055	-0.069916405
7	0x3d0de7ca	0.03464488
8	0xbcc07c8c	-0.023496889
9	0x3d7475df	0.059682723
10	0xbd868446	-0.06568198
11	0x3cc406fe	0.023929115
12	0x3d1a2ea8	0.03764215
13	0xbd56b25f	-0.0524162
14	0xbcc69d20	-0.024244845
15	0xbd480987	-0.04883721
16	0xbcbfe464	-0.023424335
17	0x3da167f2	0.07881154
18	0xbd09cbd8	-0.033641666
19	0xbd3128c0	-0.043251753
20	0xbdb1504f	-0.08657896
21	0xbc88a0d8	-0.016678259
22	0x3d71bf5e	0.059020393
23	0x3d2cdbd6	0.04220184
24	0xbd36b623	-0.044607293
25	0x3da71c04	0.081596404
26	0xbb80f870	-0.003935866
27	0x3c01efa8	0.007930674
28	0xbc560d75	-0.013064732
29	0x3d9f23f2	0.07770528
30	0xbd2d038c	-0.04223971
31	0xb8b687a9	-8.703705e-05
32	0xbd822ddc	-0.06356403
33	0x3cf35799	0.029704856
34	0xbd6bcb9a	-0.057567216
35	0xbc2666d0	-0.010156348
36	0xbb9c0040	-0.004760772
37	0x3cd8932c	0.026437365
38	0xbd89dff5	-0.067321695
39	0x3d1fbf20	0.03900063
40	0x3d522887	0.05130818
41	0x3d401d17	0.046902742
42	0xbdb20c59	-0.086937614
43	0xb8b0d800	-8.432567e-05
44	0x3da32adc	0.07967159
45	0x3d191f3d	0.037383307
46	0x3d816f35	0.06320039
47	0xbd98323d	-0.07431457
48	0xbd97f64a	-0.07420023
49	0x3d37b444	0.04484965
50	0x3d90aea0	0.07064557
51	0x3d9541ce	0.07287942
52	0x3d348220	0.04406941
53	0xbd65d65a	-0.056112625
54	0xbc96a4ba	-0.018389095
55	0xbd89714f	-0.06711065
56	0xbd98eb09	-0.074667044
57	0x3d0f30d0	0.03495866
58	0x3b96e290	0.004604645
59	0x3dacc42a	0.08435853
60	0x3d345044	0.04402186
61	0x3d828593	0.063731335
62	0xbd00b282	-0.03142024
63	0xbd810c7d	-0.0630121
64	0xbda42d26	-0.08016424
65	0x3ca74f23	0.020423478
66	0x3d133309	0.035937343
67	0x3d09260d	0.033483554
68	0xbd7a14fa	-0.06105516
69	0x3d15995c	0.036523208
70	0xbd8c6633	-0.068554305
71	0x3d22c040	0.039734125
72	0xbd8446d0	-0.06458819
73	0x3c411dc6	0.011786884
74	0xbd8fcabc	-0.070210904
75	0x3d903f7e	0.0704336
76	0xbcf499c6	-0.029858481
77	0x3cfa6c3a	0.030569185
78	0x3d9b021a	0.0756876
79	0x3d6b6ef8	0.057478875
80	0xbd719f82	-0.05899001
81	0xbd2475d4	-0.040151432
82	0x3d295899	0.04134426
83	0x3d9be26e	0.076115474
84	0xbc8dd11c	-0.017311625
85	0x3d9d623d	0.07684753
86	0x3da7fca1	0.08202482
87	0xbd402b61	-0.04691637
88	0xbccf619f	-0.025315104
89	0x3d782edc	0.060591564
90	0xbdad4fd3	-0.08462491
91	0x3cae764c	0.021296643
92	0x3d8b6860	0.06807017
93	0xbdacfabe	-0.08446263
94	0xbce12dfa	-0.027487744
95	0x3da8170c	0.08207521
96	0x3da05e07	0.07830434
97	0xbdb0465c	-0.0860717
98	0xbcef2d90	-0.02919653
99	0x3cced91c	0.02525001
100	0xbd32ef72	-0.043685384
101	0x3d515aaf	0.051111873
102	0xbd49581d	-0.049156297
103	0xbbf5b2c3	-0.0074981167
104	0xbbed0f60	-0.007234499
105	0x3c4a9192	0.012363808
106	0x3d8fe54a	0.07026155
107	0x3da2c870	0.07948387
108	0xbd3cb20b	-0.046068233
109	0xbd8f95dc	-0.07011005
110	0xbd7bd276	-0.061480008
111	0xbcb1c577	-0.021700604
112	0x3ce44f5c	0.027869873
113	0xbd993c54	-0.0748221
114	0xbd368952	-0.044564553
115	0xbcbbe69d	-0.022937113
116	0xbd8cfe5b	-0.06884452
117	0x3a1a8d80	0.0005895719
118	0x3ca1b0a7	0.019737555
119	0xbca89284	-0.020577677
120	0xbb19a617	-0.0023444945
121	0xbd9d76d7	-0.076886825
122	0xbd93d160	-0.072176695
123	0xbd391cfa	-0.04519365
124	0xbd3cc86a	-0.046089567
125	0xbd884ec5	-0.06655649
126	0xbd2ce30c	-0.042208716
127	0x3db3b18a	0.08774097
128	0xbc97d15b	-0.018532446
129	0xbce94896	-0.028476994
130	0x3d08bb9c	0.033382043
131	0x3d423483	0.04741336
132	0xbcbc73cc	-0.023004435
133	0xbd873bae	-0.0660318
134	0x3d0d4d74	0.034497693
135	0x3d8e442c	0.069465965
136	0x3ba8f054	0.0051556025
137	0x3d941ef6	0.07232468
138	0x3da661f4	0.08124152
139	0x3d462da4	0.04838337
140	0x3d2a2485	0.041538734
141	0xbd834f9f	-0.06411671
142	0xbc83f0c9	-0.016106026
143	0x3da13c20	0.07872796
144	0xbcc800dc	-0.024414472
145	0xbcafdf1c	-0.021468692
146	0x3d13d5f4	0.036092713
147	0xbd841f7e	-0.06451319
148	0x3d832ddd	0.06405232
149	0xbd889f4e	-0.0667101
150	0x3d111949	0.035424504
151	0x3d24bae8	0.04021731
152	0xbc387453	-0.011258203
153	0x3db96260	0.09051967
154	0xbd99a3ad	-0.07501922
155	0x3bd2dbe0	0.0064349025
156	0x3d1c7f8c	0.038207576
157	0x3d85db87	0.06536012
158	0x3dad3330	0.08457029
159	0x3d5fda05	0.05465128
160	0xbd6e9023	-0.05824293
161	0xbc2a0394	-0.01037683
162	0xbd84ec7e	-0.0649042
163	0x3d4adaa5	0.049524922
164	0xbc81bce3	-0.015837139
165	0x3cf89ae6	0.030347299
166	0x3dd9d4aa	0.106362656
167	0xbb9b1452	-0.004732647
168	0xbdb76b4a	-0.08956011
169	0x3d9c3ec7	0.07629161
170	0x3da69eac	0.08135733
171	0x3da2147b	0.079140626
172	0x3b9c6c00	0.004773617
173	0xbd331481	-0.043720726
174	0xbd39e037	-0.045379844
175	0xbd00f9a0	-0.03148806
176	0x3bcf47a9	0.006325681
177	0xbd97b3d0	-0.074073434
178	0x3d04288c	0.03226523
179	0x3ce20848	0.02759184
180	0xbd270d2d	-0.04078405
181	0x3d5eaf31	0.054366294
182	0x3d53f8d6	0.05175098
183	0x3d2181cd	0.03943043
184	0x3d9a0a9a	0.07521553
185	0x3d163edd	0.036681045
186	0xbd53c582	-0.05170203
187	0xbda2d6c9	-0.07951123
188	0xbdc7e4b5	-0.09760419
189	0xbdb609ac	-0.088885635
190	0xbdaeaefc	-0.08529469
191	0x3b861baa	0.0040926533
192	0x3d90756a	0.07053645
193	0xbd2c7785	-0.04210617
194	0x3d17cd50	0.037061036
195	0xbd0852e9	-0.033282194
196	0xbd906f17	-0.07052439
197	0x3d259afe	0.040431015
198	0x3d571d8c	0.052518412
199	0xbda52d41	-0.08065272
200	0x3d869271	0.065709
201	0xbd050875	-0.03247877
202	0x3d909709	0.07060058
203	0xbdc51c58	-0.09624547
204	0x3d81f5a6	0.06345682
205	0xbcbd49cd	-0.02310648
206	0xbd1c8fdf	-0.038223144
207	0x3d9fcdb0	0.07802904
208	0xbcde6cfa	-0.027151573
209	0x3d2f7950	0.042840302
210	0xbc554453	-0.013016778
211	0xbbdae460	-0.0066800565
212	0xbda62568	-0.081126034
213	0xbd54d5ac	-0.051961586
214	0xbd96bf5c	-0.07360718
215	0x3d3c7140	0.04600644
216	0xbdba26b5	-0.09089414
217	0x3d76d044	0.06025721
218	0x3b943400	0.0045228004
219	0xbc49a793	-0.012308019
220	0x3cab3dec	0.02090355
221	0x3c89d33a	0.016824353
222	0x3d7d493a	0.061837412
223	0x3d908420	0.07056451
224	0x3d8ed1e2	0.06973626
225	0xbcb42d43	-0.021994239
226	0xbc0ec128	-0.008713044
227	0x3c87d324	0.016580172
228	0x3d872d47	0.06600433
229	0x3d9ccc9c	0.07656214
230	0x3d9f4a5c	0.07777855
231	0xbdab17bc	-0.08354136
232	0xbcfc4b1e	-0.030797537
233	0x3db8645d	0.09003518
234	0xbdb3b70c	-0.08775148
235	0x3d8c08a4	0.068375856
236	0xbda7a6d8	-0.0818612
237	0x3d8b1a02	0.0679207
238	0x3d8705b8	0.06592888
239	0x3ab76da5	0.0013994469
240	0x3dc6a8bc	0.09700152
241	0xbd035506	-0.032063507
242	0xbbf51340	-0.0074791014
243	0x3db9ee7e	0.09078692
244	0x3d8f2370	0.06989181
245	0xbd526b6d	-0.05137198
246	0xbdace905	-0.084428824
247	0x3da7ba57	0.081898384
248	0x3da008df	0.07814192
249	0x3cfd3342	0.03090823
250	0xbcdc3f5c	-0.02688568
251	0xbc97cae3	-0.018529361
252	0x3d45d188	0.048295528
253	0x3d951a24	0.072803766
254	0xbd5b5e6a	-0.053556837
255	0xbd279b83	-0.040919792

fc2.bias f4 [48]
0	0xbaac6bbc	-0.0013154666
1	0x3ce2f7c2	0.02770603
2	0x3b7a912d	0.0038233504
3	0xbcb01e4f	-0.021498827
4	0xbd867db7	-0.06566947
5	0xbda2f67a	-0.07957168
6	0xbd5976fe	-0.053091995
7	0xbd913ec0	-0.07092047
8	0x3c3fe894	0.011713166
9	0xbd8aeb57	-0.06783169
10	0x3c97361e	0.018458422
11	0x3b3c3b00	0.002872169
12	0x3ce16acb	0.027516743
13	0x3becf3e5	0.007231223
14	0x3dccb745	0.099958934
15	0x3cb1c3a7	0.02169974
16	0xbd16cf6c	-0.036818907
17	0xbd8e28c9	-0.06941373
18	0xbd714126	-0.05890002
19	0x3ccd1ef4	0.025039174
20	0xb98eefc6	-0.00027262996
21	0xbd67e452	-0.056614228
22	0x3b6da83d	0.0036263608
23	0x3c85e001	0.016342165
24	0xbd0ab187	-0.03386071
25	0x3d80f836	0.062973425
26	0xbd6ae38f	-0.057345923
27	0xbd08cf6f	-0.03340095
28	0xbd9e8c92	-0.077416554
29	0xbd141bb8	-0.036159247
30	0x3cd83e00	0.026396751
31	0x3d6bac75	0.057537515
32	0xbd6c4b01	-0.057688717
33	0xbc90843f	-0.017641185
34	0xbdaadc85	-0.08342842
35	0xbd7ecd31	-0.062207405
36	0x3d02a852	0.031898804
37	0xbcf9f028	-0.030510023
38	0x3721208a	9.603924e-06
39	0xbd880342	-0.066412464
40	0x3d0ee268	0.034883887
41	0x3de2fa20	0.11082864
42	0x3c9edb05	0.019391546
43	0xbd7bb8e7	-0.061455633
44	0xbbc94a84	-0.006142916
45	0xbd97950b	-0.074014746
46	0xbd65d8bc	-0.056114897
47	0x3df25e49	0.1183439

fc3.weight f4 [26, 48]
0	0xbdf49073	-0.11941614
1	0x3dab03d9	0.08350343
2	0xbdbc4a1c	-0.09193823
3	0x3da1464d	0.07874737
4	0x3d6cadec	0.057783052
5	0xbdc4eadc	-0.09615108
6	0x3c499288	0.012303002
7	0xbc9fe5c4	-0.01951874
8	0x3d161b1a	0.03664694
9	0x3dfb1c8c	0.12261304
10	0x3da1ecf1	0.07906521
11	0x3c54ab70	0.012980327
12	0x3dd5ccbc	0.104394406
13	0x3d184a06	0.03717997
14	0xbbf3f3f7	-0.0074448544
15	0xbd9a664e	-0.07539044
16	0x3e0b9670	0.13631606
17	0xb9c28e00	-0.00037108362
18	0x3d0a4f5c	0.03376709
19	0x3e1448cf	0.144809
20	0xbe0eb65e	-0.13936755
21	0xbcd5b170	-0.026085585
22	0xbdeafc59	-0.11473913
23	0xbd0de6db	-0.03464399
24	0x3da287f3	0.079360865
25	0xbdc57d56	-0.096430466
26	0x3d9badf8	0.07601541
27	0x3dc1d516	0.09464471
28	0x3d6bf374	0.057605222
29	0x3dae3d0d	0.08507738
30	0xbde14c0d	-0.11000834
31	0x3c2d9dbc	0.010596689
32	0x3da1e348	0.079046786
33	0x3df1fec4	0.11816171
34	0x3ddaad74	0.10677615
35	0xbe05b76f	-0.13058256
36	0xbd070801	-0.032966617
37	0xbc48cac0	-0.012255371
38	0xbe12995e	-0.14316317
39	0xbc859cef	-0.016310183
40	0xbda8702e	-0.082245216
41	0x3c228925	0.009920393
42	0xbc7b81f7	-0.01535081
43	0xbdd8068f	-0.10548126
44	0x3dc3676c	0.095412105
45	0xba22035f	-0.0006180312
46	0x3d119b0c	0.035548255
47	0x3d5c7753	0.053824734
48	0xbd2fdd5c	-0.042935714
49	0xbdf63dfe	-0.12023543
50	0xbe175fd6	-0.14782652
51	0xbdb71c81	-0.089409836
52	0xbd48ccac	-0.049023315
53	0xbd71048a	-0.05884222
54	0x3db2879f	0.08717274
55	0x3da4bcde	0.08043836
56	0xbd026588	-0.03183511
57	0xbdfaa52c	-0.12238535
58	0x3dff67cc	0.124709696
59	0xbd763b02	-0.060114868
60	0x3cb9e2a8	0.022691086
61	0xbd51a69d	-0.051184285
62	0x3d7f2da0	0.06229937
63	0xbdb68bcb	-0.08913382
64	0xbcc0ae40	-0.023520589
65	0x3cde4540	0.02713263
66	0x3cab5428	0.020914152
67	0x3dde9779	0.10868735
68	0xbde217aa	-0.1103967
69	0xbdfc125e	-0.12308191
70	0xbd549daa	-0.051908173
71	0x3d39d84b	0.04537229
72	0xbc9f7e41	-0.019469382
73	0x3d81864f	0.063244455
74	0x3d02a358	0.031894058
75	0xbdf5a4e7	-0.11994343
76	0xbe0a4eb1	-0.13506581
77	0x3d7aee8d	0.061262656
78	0x3dc26dcb	0.094935976
79	0x3dd37ef6	0.1032695
80	0xbdd84fc6	-0.105620906
81	0xbde1c2a5	-0.110234536
82	0xbe134631	-0.14382245
83	0xbdfd9f85	-0.123839416
84	0x3da30371	0.07959641
85	0x3dd07499	0.10178489
86	0x3dba7d1c	0.09105894
87	0xbe06ed5c	-0.13176483
88	0x3dd9a510	0.10627186
89	0x3e0f97c2	0.14022735
90	0xbdb894f8	-0.090127885
91	0x3b16174d	0.0022902072
92	0x3d5b321d	0.05351459
93	0x3c88d365	0.016702363
94	0xbdd3796e	-0.10325895
95	0xbdcf4928	-0.10121375
96	0xbda0c9a1	-0.07850958
97	0xbcb86eac	-0.02251371
98	0xbe0cb424	-0.13740593
99	0xbb9e53e7	-0.0048317793
100	0x3d85ecf6	0.06539337
101	0xbcff0864	-0.03113193
102	0x3d30633c	0.043063387
103	0xbc275270	-0.010212526
104	0xbcd47c3a	-0.025938142
105	0x3da381a6	0.07983713
106	0xbe05ca20	-0.13065386
107	0x3d854296	0.06506841
108	0xbbf1bca4	-0.007377224
109	0xbddfdbaa	-0.109305695
110	0xbe0f432c	-0.13990468
111	0x3b8ac0c7	0.0042344066
112	0x3e0cb1c8	0.13739693
113	0x3ba348a0	0.004983023
114	0x3a468a00	0.0007573664
115	0x3d960145	0.07324461
116	0xbe25396a	-0.16135183
117	0x3da6ffd3	0.08154263
118	0xbe088611	-0.13332392
119	0xbd86d752	-0.06584038
120	0xbddbbb80	-0.10729122
121	0x3dc39b19	0.09551067
122	0x3d32cf40	0.04365468
123	0xbdf9dfdb	-0.122009
124	0x3df85b90	0.12126839
125	0xbd922825	-0.07136563
126	0x3cd24fe6	0.025672864
127	0x3ccf2403	0.025285726
128	0xbc4bc720	-0.012437612
129	0xbc80e198	-0.015732571
130	0x3d256830	0.040382564
131	0xbda5bb57	-0.08092373
132	0x3be5e495	0.0070157745
133	0x3d56518d	0.052323867
134	0x3bf3bbb4	0.0074381474
135	0x3d931649	0.07181985
136	0xbd856a13	-0.06514373
137	0x3d9e94c7	0.07743221
138	0x3e039a54	0.1285184
139	0xbd8f9ea5	-0.07012681
140	0xbba29937	-0.0049621123
141	0xbc817a96	-0.015805524
142	0x3e0240c1	0.12720014
143	0x3c5c34d1	0.013440327
144	0xbdd9d359	-0.106360145
145	0xbdc57454	-0.096413285
146	0x3cbba0cc	0.022903822
147	0x3dd9a053	0.106262825
148	0xbd97ecab	-0.07418188
149	0x3d789870	0.06069225
150	0x3e12d009	0.14337172
151	0xbd69d7ee	-0.057090692
152	0x3cb38f0e	0.0219188
153	0xbc804730	-0.015658945
154	0x3ddf2ff1	0.10897816
155	0xbdced06d	-0.10098348
156	0x3bc6fff8	0.0060729943
157	0xbd59c574	-0.05316682
158	0xbd81e7c4	-0.06343034
159	0xbe0087dd	-0.12551828
160	0xbdc969ca	-0.09834631
161	0x3d291ec0	0.04128909
162	0xbc765ba0	-0.015036494
163	0x3d211a51	0.039331738
164	0x3a666345	0.0008788596
165	0x3e0a03cc	0.13478011
166	0xbdd14529	-0.102182694
167	0x3dca5886	0.09880166
168	0xbc1dda42	-0.009634556
169	0xbd7a1c89	-0.06106237
170	0xbe0598c0	-0.13046551
171	0x3dcf23e9	0.10114271
172	0x3e1179d0	0.14206624
173	0x3d82f41e	0.06394218
174	0xbd68be5f	-0.056822177
175	0x3d3ab80b	0.045585673
176	0x3db1c2d4	0.08679739
177	0xbd9d0902	-0.07667734
178	0x3da93850	0.08262694
179	0xbda6055c	-0.08106491
180	0xbddb9c2f	-0.10723149
181	0xbd9e2aec	-0.077230304
182	0x3c7769c6	0.015100902
183	0x3e102769	0.14077534
184	0x3d421d54	0.04739125
185	0x3deda03e	0.116028294
186	0xbd768c6d	-0.060192514
187	0xbca94196	-0.020661157
188	0xbdf4eef1	-0.11959637
189	0x3e0fee70	0.140558
190	0x3d6a06ec	0.057135507
191	0xbdab6120	-0.083681345
192	0x3c08fc1f	0.008360892
193	0xbcf34d7c	-0.029700033
194	0xbe1c8ee8	-0.1528889
195	0x3d025b41	0.031825308
196	0x3dcb6636	0.099316046
197	0xbd53cbfa	-0.0517082
198	0xbdebbbc3	-0.11510422
199	0xbd609c84	-0.054836765
200	0x3cc4429a	0.02395754
201	0x3d7f3b90	0.062312663
202	0xbde49300	-0.111608505
203	0x3d7a3924	0.06108965
204	0xbe04b3ca	-0.12959209
205	0xbb8f3fba	-0.0043716105
206	0xbde2fac9	-0.1108299
207	0xbbbac1f7	-0.005699392
208	0x3df55558	0.11979169
209	0xbc1d0b40	-0.009585202
210	0xbe06e687	-0.13173877
211	0xbc253c89	-0.0100852335
212	0xbde76e80	-0.11300373
213	0x3c45db48	0.0120762065
214	0x3d7ece87	0.06220868
215	0x3d0e2e45	0.034712095
216	0xbd92277c	-0.07136437
217	0xbde746d5	-0.11292807
218	0x3ca61ea8	0.02027829
219	0xbdda7685	-0.10667137
220	0xbdb63cbc	-0.08898303
221	0x3dee4e00	0.11635971
222	0x3ccd83db	0.025087288
223	0xbd9561ea	-0.07294066
224	0x3dba0bdc	0.09084293
225	0xbdbc45fe	-0.091930375
226	0x3db02f82	0.086028114
227	0xbe118588	-0.14211094
228	0x3e047946	0.12936887
229	0xbd190d27	-0.03736606
230	0x3d0f5526	0.034993313
231	0xbda34c26	-0.079735085
232	0x3d943dc8	0.07238346
233	0x3db4f70d	0.08836184
234	0x3ce7ea17	0.028309865
235	0x3e017985	0.12644012
236	0x3dd5f989	0.10447986
237	0xbdb13596	-0.08652799
238	0xbde420e6	-0.111390874
239	0xbe2a163c	-0.16610044
240	0xbe049877	-0.12948786
241	0xbd9454e3	-0.07242753
242	0xbdddeaae	-0.10835777
243	0x3c4193d8	0.011815034
244	0xbe129bca	-0.14317241
245	0xbd40325a	-0.04692302
246	0x3deeeff2	0.1166686
247	0x3d098b54	0.03358014
248	0xbd798dac	-0.060926124
249	0x3d13f720	0.03612435
250	0x3da0907d	0.07840059
251	0xbc4396a0	-0.011937767
252	0x3d518514	0.051152304
253	0x3db0dbb3	0.08635654
254	0xbd53551b	-0.051594835
255	0xbd24336c	-0.040088102

fc3.bias f4 [26]
0	0xbcb7b009	-0.022422807
1	0xbcf5b861	-0.029995145
2	0x3d355460	0.04426992
3	0x3de98d4e	0.11403905
4	0x3d60235f	0.054721233
5	0x3cf92bb9	0.030416356
6	0x3ca8b48d	0.020593906
7	0xbe22438e	-0.15846083
8	0x3dd60edc	0.10452053
9	0xbd73099f	-0.059335347
10	0xb9f448d1	-0.0004659356
11	0x3ba4e743	0.0050324514
12	0x3d8584a1	0.065194376
13	0x3cb8b2da	0.02254622
14	0xbd02139f	-0.031756993
15	0x3cb64383	0.022248989
16	0x3c8251c0	0.015908122
17	0x3d3b9468	0.045795828
18	0xbd00a792	-0.031409808
19	0x3dbb7f77	0.09155171
20	0xbcb98d4c	-0.022650383
21	0x3db4b31d	0.08823226
22	0x3dde88ed	0.1086596
23	0x3d35e40f	0.044406947
24	0x3bdf2481	0.0068097715
25	0x3dc6a806	0.09700017
