DLRV_SignLanguageToText/Code1/signlanguage.onnx (onnx, 226863 bytes, 12 tensors)

conv1.bias f4 [6]
0.1350243 0.07227832 -0.98680586 0.0073974896 -0.35804233 -0.066977054
00000000: cf43 0a3e a806 943d 4f9f 7cbf a466 f23b
00000010: 5351 b7be 442b 89bd

conv1.weight f4 [6, 1, 3, 3]
0.511691 0.5096024 0.22763371 -0.42099476 -0.15313344 0.22377136 -0.62233496 -0.44052535
0.14439113 -0.48772386 0.5386922 0.18859719 0.18923108 0.3856563 0.273053 -0.08836704
0.34048083 0.10775819 0.24171184 0.09768538 0.3084753 0.011771422 -0.0742596 0.09050354
-0.091710545 0.19397244 0.44058073 0.037568793 -0.3631403 -0.29639074 -0.24024262 -0.24971665
-0.3908315 -0.30070582 0.15333001 -0.36569867 0.031316705 -0.39193675 -0.19539358 0.2986423
-0.5230954 -0.19085637 -0.015088681 -0.24300465 -0.05466976 0.90396106 -1.7176948 -0.114597365
-0.12390062 -0.9316857 0.5661338 0.14744088 -0.10114049 1.2007663
00000000: 2efe 023f 4e75 023f d018 693e a08c d7be
00000010: 03cf 1cbe 5224 653e 5851 1fbf 8a8c e1be
00000020: 45db 133e f1b6 f9be bbe7 093f 9f1f 413e
00000030: cbc5 413e be74 c53e 9acd 8b3e c7f9 b4bd
00000040: 8153 ae3e 53b0 dc3d 4f83 773e 460f c83d
00000050: 79f0 9d3e ecdc 403c 6b15 98bd ec59 b93d
00000060: bdd2 bbbd b6a0 463e cc93 e13e bce1 193d
00000070: 87ed b9be 87c0 97be 2902 76be b9b5 7fbe
00000080: 111b c8be 1df6 99be 8b02 1d3e db3c bbbe
00000090: f245 003d efab c8be 4115 48be a5e7 983e
000000a0: 95e9 05bf da6f 43be 8436 77bc 36d6 78be
000000b0: 66ed 5fbd fe69 673f 6cdd dbbf 06b2 eabd
000000c0: 9cbf fdbd f482 6ebf 25ee 103f befa 163e
000000d0: bf22 cfbd b6b2 993f

conv2.bias f4 [6]
0.14569362 -0.11686797 0.2483892 0.3927614 0.10479597 0.31150377
00000000: b530 153e 7958 efbd bd59 7e3e 0618 c93e
00000010: 459f d63d 6c7d 9f3e

conv2.weight f4 [6, 6, 3, 3]
0.45084184 -0.14508267 -0.092095666 0.21452342 -0.18939345 -0.27687478 -0.05692224 0.29508767
-0.09299921 0.16952956 0.04388481 0.49442694 0.21267733 0.06781717 0.33172613 -0.29411665
-0.019448161 0.2793952 0.28114578 0.031377353 0.28035933 0.08187808 0.04883926 0.19842824
-0.1462822 0.13608815 0.16985221 0.21847825 0.025313627 -0.017147038 0.3230772 -0.1665784
-0.15324116 0.010460184 -0.122861095 -0.027861862 -0.028823122 0.00055480807 -0.069652535 -0.08540896
-0.19559488 -0.08154974 0.01661463 -0.10176719 -0.100022204 -0.30437642 -0.32497168 -0.45931867
-0.4090101 -0.28029796 -0.32584715 -0.0097466335 0.08687131 -0.43675792 -0.16447575 0.19780609
0.06717809 -0.11551772 -0.033453766 -0.21331735 -0.23584846 -0.18944724 -0.051577702 -0.28700408
-0.22824019 0.023561547 -0.22563449 0.10805524 0.18538591 -0.10120777 0.3007701 0.03350149
-0.24426234 0.08215273 0.078791745 0.017674636 0.17624336 0.13520174 0.0695454 0.025326634
0.010927745 -0.06985893 0.20259973 0.2269319 0.23000576 0.3694267 0.07416155 0.07788931
0.092425406 -0.3429858 0.18919893 0.01603097 0.059057638 0.26260322 0.27009648 -0.06970128
0.28923917 0.16287895 -0.16781339 0.063555494 -0.027849717 0.117494844 0.26437563 0.2385819
-0.0751262 0.41137356 0.14901762 0.055207916 -0.19021414 -0.21149485 -0.30766428 -0.22943299
-0.095735565 0.16998845 -0.059292354 -0.0026777012 -0.0041620387 -0.34740648 0.28012925 0.11389177
0.35799766 0.38526136 -0.113761276 0.44482702 0.12614016 -0.30586758 -0.21577346 0.1058548
-0.00028871826 0.21484587 0.15297668 0.0033993917 0.145435 0.06279159 -0.23880045 0.23180665
-0.022615815 -0.09762095 0.030555695 -0.20385832 0.06447759 0.056698464 0.0259131 0.0947549
-0.10929932 -0.11801263 -0.086848006 -0.06733961 -0.040598523 -0.16464926 0.02665666 -0.17747909
-0.14424586 0.32413027 0.037231427 -0.020653673 -0.32529914 -0.27716514 -0.22871566 -0.32965598
-0.24567632 -0.5158192 0.23172115 0.22460975 0.14370814 0.07995295 0.08339746 0.1530999
-0.19966407 -0.048992712 -0.030182369 -0.5232789 0.1292759 0.38584742 -0.2943063 0.034606703
0.2954233 -0.58780277 -0.039572854 0.30888018 -0.2652945 -0.029265832 0.082007214 -0.1801397
0.05790734 0.17966247 -0.41128725 -0.18526018 0.124538705 0.18686561 -0.1873871 -0.2988443
0.13080455 -0.10618695 -0.31210697 0.36726642 -0.04359986 -0.29832637 0.15423535 -0.099461064
-0.10972992 0.22249751 0.05965676 -0.11358136 0.18444458 -0.052242678 -0.056474794 0.22995034
-0.19026156 -0.11517097 -0.10509042 -0.26569024 -0.14801528 -0.06343716 -0.023582952 0.0468908
0.1648677 0.21993357 -0.024040034 -0.065256976 0.097477265 0.25005257 -0.036210675 -0.09943705
0.6822727 0.36215112 0.56177604 0.39293152 -0.19079642 0.2011001 0.18574178 -0.72586477
-0.5322468 -0.05298446 0.314933 0.33547878 0.22113791 -0.2634802 0.09870693 0.20534135
-0.4264926 -0.524442 0.17388819 0.071906574 -0.2324119 -0.21134326 0.23328851 -0.10252366
-0.18737373 0.42666647 0.13097793 -0.11081205 -0.021513822 -0.097816795 -0.13906014 0.14193313
00000000: bed4 e63e 8d90 14be a79c bcbd 07ac 5b3e
00000010: 5bf0 41be 88c2 8dbe 4b27 69bd bb15 973e
00000020: 5f76 bebd 2899 2d3e 8fc0 333d 8725 fd3e
00000030: 16c8 593e bae3 8a3d 02d8 a93e 7596 96be
00000040: c051 9fbc e30c 8f3e 57f2 8f3e 8a85 003d
00000050: 428b 8f3e b2af a73d ad0b 483d c630 4b3e
00000060: 00cb 15be b15a 0b3e bded 2d3e c3b8 5f3e
00000070: 865e cf3c f277 8cbc 606a a53e 8793 2abe
00000080: 40eb 1cbe 3161 2b3c 999e fbbd 8f3e e4bc
00000090: 781e ecbc 8a70 113a fda5 8ebd e5ea aebd
000000a0: 064a 48be 8d03 a7bd 681b 883c 516b d0bd
000000b0: 71d8 ccbd 3ad7 9bbe b062 a6be d12b ebbe
000000c0: c669 d1be 3783 8fbe 70d5 a6be 58b0 1fbc
000000d0: 96e9 b13d bc9e dfbe 556c 28be ae8d 4a3e
000000e0: ab94 893d 8e94 ecbd d106 09bd dd6f 5abe
000000f0: 4282 71be 75fe 41be 2443 53bd 33f2 92be
00000100: ccb7 69be 2504 c13c ba0c 67be 114c dd3d
00000110: ced5 3d3e 0546 cfbd 8afe 993e dc38 093d
00000120: e81f 7abe b13f a83d 915d a13d 66ca 903c
00000130: 2479 343e 5372 0a3e d26d 8e3d cd79 cf3c
00000140: 490a 333c 3312 8fbd 4e76 4f3e d660 683e
00000150: a186 6b3e 7f25 bd3e 03e2 973d 6e84 9f3d
00000160: 8849 bd3d d69b afbe 5dbd 413e 6153 833c
00000170: 6ce6 713d ee73 863e 164a 8a3e 8bbf 8ebd
00000180: 2817 943e bdc9 263e 46d7 2bbe 6229 823d
00000190: 1725 e4bc 23a1 f03d 3e5c 873e d04e 743e
000001a0: c4db 99bd 8e9f d23e 1398 183e b221 623d
000001b0: 7fc7 42be 1b92 58be 2c86 9dbe 7bf0 6abe
000001c0: 0211 c4bd 7411 2e3e 8adc 72bd 5f7c 2fbb
000001d0: b661 88bb 43df b1be 1a6d 8f3e 1740 e93d
000001e0: 784b b73e fa40 c53e acfb e8bd 5ec0 e33e
000001f0: e32a 013e ad9a 9cbe b8f3 5cbe 67ca d83d
00000200: 1c5f 97b9 8e00 5c3e eba5 1c3e 54c8 5e3b
00000210: eaec 143e e198 803d 1b88 74be b95e 6d3e
00000220: cd44 b9bc 7eed c7bd f04f fa3c 3cc0 50be
00000230: d40c 843d a63c 683d b647 d43c db0e c23d
00000240: 52d8 dfbd 9bb0 f1bd 5edd b1bd 59e9 89bd
00000250: a34a 26bd d199 28be 115f da3c 14bd 35be
00000260: 30b5 13be 67f4 a53e fb7f 183d e431 a9bc
00000270: 9c8d a6be 97e8 8dbe 7034 6abe abc8 a8be
00000280: 9392 7bbe ba0c 04bf 4f48 6d3e 1900 663e
00000290: 3a28 133e 5fbe a33d 4acc aa3d 38c6 1c3e
000002a0: bd74 4cbe 95ac 48bd 0441 f7bc 9bf5 05bf
000002b0: e760 043e cb8d c53e 51af 96be c2bf 0d3d
000002c0: b941 973e 3e7a 16bf 2517 22bd 8b25 9e3e
000002d0: aed4 87be e6be efbc 66f3 a73d 8b76 38be
000002e0: 3f30 6d3d 70f9 373e 3e94 d2be d8b4 3dbe
000002f0: 260e ff3d b359 3f3e 67e2 3fbe 1f02 99be
00000300: a1f1 053e 8b78 d9bd 7ccc 9fbe 580a bc3e
00000310: c495 32bd 3cbe 98be dfef 1d3e 3eb2 cbbd
00000320: 15ba e0bd 63d6 633e a65a 743d 589d e8bd
00000330: 0adf 3c3e 6bfc 55bd 1d52 67bd 1a78 6b3e
00000340: edd3 42be c2de ebbd a539 d7bd 8d08 88be
00000350: 5191 17be 57eb 81bd 0931 c1bc 9110 403d
00000360: 14d3 283e 4436 613e 9bef c4bc 73a5 85bd
00000370: 29a2 c73d e406 803e a551 14bd a7a5 cbbd
00000380: 6ca9 2e3f df6b b93e 8ed0 0f3f 522e c93e
00000390: 2360 43be 2fed 4d3e 1833 3e3e 46d2 39bf
000003a0: 5441 08bf 3c06 59bd e63e a13e e0c3 ab3e
000003b0: fa71 623e e0e6 86be dc26 ca3d 0145 523e
000003c0: 3d5d dabe d541 06bf bf0f 323e c143 933d
000003d0: 63fd 6dbe 5e6a 58be 2fe3 6e3e edf7 d1bd
000003e0: e6de 3fbe 0774 da3e 141f 063e 6ef1 e2bd
000003f0: c13d b0bc 2c54 c8bd c865 0ebe eb56 113e

conv3.bias f4 [16]
-0.17192599 -0.06024725 -0.37308633 0.14820877 0.080816865 -0.12201947 -0.2511827 0.046429265
0.09831484 -0.25148228 -0.119676985 -0.27113587 -0.27807862 -0.12424995 -0.1422933 -0.09287562
00000000: 5e0d 30be d2c5 76bd 2c05 bfbe 0ac4 173e
00000010: 5083 a53d 58e5 f9bd 059b 80be 9d2c 3e3d
00000020: 4a59 c93d 49c2 80be 3519 f5bd 52d2 8abe
00000030: 5260 8ebe c276 febd 56b5 11be 9335 bebd

conv3.weight f4 [16, 6, 3, 3]
0.108651675 -0.28680035 -0.27497357 -0.37335587 -0.56422746 -0.4260043 0.32596368 0.47162846
0.3870482 0.07651722 0.30126786 0.3115644 0.0068222894 0.23156634 0.18084805 -0.25565743
-0.51390785 -0.46020782 -0.064040385 -0.53333616 -0.5009628 -0.3773654 -0.28677654 0.36447707
0.20640069 0.6586422 0.45911142 -0.0020939473 -0.043173295 -0.020170834 -0.1740542 -0.35889795
-0.21329984 0.21453834 0.036817104 0.18387255 0.14128406 0.42774996 0.27351865 -0.0972416
-0.26915744 -0.31026503 -0.11294945 0.3144558 0.18692994 -0.3794962 -0.65541005 -0.5616508
-0.3368856 -0.024210837 0.12212023 0.5670873 0.42184383 0.27690554 -0.7072818 0.20872456
-0.66266453 -0.1225237 0.5153869 0.04066739 0.12399895 0.25818577 0.05269719 0.49820304
0.007462929 -0.07683574 -0.060983088 0.014565294 0.020307029 -0.22785826 -0.11315931 -0.12637301
-0.4974214 0.48026165 0.06480847 -0.091934495 0.39126757 -0.059463024 -0.13138027 0.07177893
-0.011042713 0.091336384 0.17120299 -0.32620066 0.23826092 0.22700316 -0.14637302 -0.05806215
-0.10530434 -0.124022216 -0.5896559 -0.29540738 -0.33730736 -0.03205592 0.28712246 -0.09110619
0.18585822 0.037088197 -0.10783194 -0.42231327 0.3812032 -0.5539846 0.055561148 0.3905612
-0.09195466 0.052731086 0.14100973 0.09418673 0.6365651 0.5865635 -0.3860114 0.17489743
-0.26059905 -0.40587243 -0.30676877 -0.30432478 0.335186 -0.36220124 -0.55730826 -0.15038764
-0.32818776 -0.20399909 0.5318342 0.13610423 0.44475347 0.3030117 -0.04333163 0.4375456
-0.5901191 0.2358137 -0.18571918 -0.04583499 -0.47193107 -0.5147046 0.41390914 0.29616398
-0.102177635 -0.23636672 -0.045575272 -0.3098871 -0.07590203 -0.11313462 -0.040631477 0.34473807
0.03916633 0.19627517 -0.01736483 -0.005640466 -0.3991095 -0.3148681 0.186404 -0.21820049
-0.018877799 0.48936468 0.31105942 -0.39069888 0.16859846 -0.25797424 0.03695268 -0.5691839
-0.4288417 0.3214665 -0.6416582 -0.6359826 -0.7632462 0.14632842 0.24934761 0.00015986017
0.70577997 0.79041517 0.26932594 0.0965898 0.3135715 0.4130748 -0.22706403 -0.4363411
0.009411525 -0.40172043 -0.47613817 -0.27574664 -0.25240156 -0.6614745 -0.71772796 0.2630363
0.30003217 0.14955823 0.0646982 0.119947 0.09275675 -0.10586467 -0.30750746 0.13964489
-0.1998113 -0.19763179 -0.28192252 0.15742606 0.18420136 -0.04342897 0.16271949 -0.11860501
-0.16463485 -0.458962 -0.0043003648 -0.11405263 0.045453716 0.40953344 0.07644234 -0.43877977
-0.6478508 -0.997263 0.13513039 0.42531514 -0.016174838 0.2097637 0.71920925 0.32215264
-0.03345506 -0.017054074 -0.011008093 -0.18373966 -0.16074131 -0.0836822 -0.04336536 -0.1376638
-0.14981908 0.27739727 -0.008882611 0.02866152 0.4136659 0.20057917 0.11819232 0.1134922
-0.015785696 0.08910215 -0.017096397 -0.03709362 -0.16790536 -0.06628328 -0.07611456 -0.11357734
0.0941848 -0.16140586 -0.16367652 0.19176249 -0.04269323 0.18446968 -0.10948281 0.068845324
-0.110830665 -0.12808093 -0.2288164 -0.0781174 0.24740806 -0.03833299 0.23836848 0.06439964
00000000: c584 de3d 7fd7 92be 56c9 8cbe 8028 bfbe
00000010: 3671 10bf 3c1d dabe b6e4 a63e 4979 f13e
00000020: 2f2b c63e 0fb5 9c3d c83f 9a3e 5e85 9f3e
00000030: 838d df3b ba1f 6d3e 3b30 393e 88e5 82be
00000040: 778f 03bf 5ca0 ebbe 9b27 83bd b888 08bf
00000050: 193f 00bf 0a36 c1be 60d4 92be bd9c ba3e
00000060: b45a 533e c69c 283f a710 eb3e 9b3a 09bb
00000070: 7bd6 30bd 4e3d a5bc 443b 32be 79c1 b7be
00000080: 466b 5abe f0af 5b3e 88cd 163d 1649 3c3e
00000090: c5ac 103e 0b02 db3e a30a 8c3e 9b26 c7bd
000000a0: 01cf 89be 0fdb 9ebe 0b52 e7bd 5a00 a13e
000000b0: 906a 3f3e 534d c2be f4c8 27bf 59c8 0fbf
000000c0: 457c acbe ce55 c6bc 2c1a fa3d a22c 113f
000000d0: eafb d73e 90c6 8d3e 6c10 35bf e4bb 553e
000000e0: 62a4 29bf b5ed fabd 65f0 033f d992 263d
000000f0: 29f3 fd3d ed30 843e 02d9 573d 7814 ff3e
00000100: 968b f43b 0e5c 9dbd 67c9 79bd 45a3 6e3c
00000110: ed5a a63c ad53 69be 11c0 e7bd ed67 01be
00000120: 05ae febe dbe4 f53e 4eba 843d 2748 bcbd
00000130: 3954 c83e 808f 73bd 8d88 06be d500 933d
00000140: 7fec 34bc 920e bb3d d64f 2f3e c603 a7be
00000150: acfa 733e 8473 683e cfe2 15be 94d2 6dbd
00000160: cda9 d7bd 5cff fdbd b0f3 16bf a33f 97be
00000170: 8db3 acbe 124d 03bd b701 933e e295 babd
00000180: 9e51 3e3e cbe9 173d fed6 dcbd 7239 d8be
00000190: 112d c33e efd1 0dbf 1694 633d a3f7 c73e
000001a0: ba52 bcbd 8dfc 573d db64 103e f9e4 c03d
000001b0: eef5 223f 0729 163f 49a3 c5be 5018 333e
000001c0: 3d6d 85be 83ce cfbe cc10 9dbe 75d0 9bbe
000001d0: 809d ab3e 7172 b9be c1ab 0ebf 38ff 19be
000001e0: 3a08 a8be 23e5 50be 4926 083f e85e 0b3e
000001f0: bab6 e33e 5924 9b3e 827c 31bd fa05 e03e
00000200: 0c12 17bf 2679 713e 2b2d 3ebe 78bd 3bbd
00000210: f3a0 f1be aec3 03bf e6eb d33e cea2 973e
00000220: 8242 d1bd 1e0a 72be 23ad 3abd 86a9 9ebe
00000230: 8672 9bbd 20b3 e7bd 316d 26bd 8281 b03e
00000240: e06c 203d 5cfc 483e b040 8ebc a9d3 b8bb
00000250: 1558 ccbe 6436 a1be b1e0 3e3e f36f 5fbe
00000260: 9da5 9abc 028e fa3e 2e43 9f3e af09 c8be
00000270: 13a5 2c3e 3315 84be b25b 173d 09b6 11bf
00000280: 2491 dbbe 4297 a43e b643 24bf c1cf 22bf
00000290: 1a64 43bf 1ed7 153e fb54 7f3e 23a0 2739
000002a0: ffad 343f a658 4a3f 17e5 893e e0d0 c53d
000002b0: 728c a03e 8a7e d33e 7983 68be 1a68 dfbe
000002c0: cc32 1a3c 4dae cdbe 62c8 f3be aa2e 8dbe
000002d0: c73a 81be 6556 29bf 05bd 37bf b2ac 863e
000002e0: d19d 993e cb25 193e 7d80 843d c6a6 f53d
000002f0: 40f7 bd3d 93cf d8bd 9e71 9dbe 12ff 0e3e
00000300: 559b 4cbe fd5f 4abe 2658 90be 4c34 213e
00000310: 489f 3c3e 93e2 31bd f09f 263e 2fe7 f2bd
00000320: 0a96 28be 11fd eabe 13ea 8cbb 6d94 e9bd
00000330: ad2d 3a3d 5eae d13e cd8d 9c3d bea7 e0be
00000340: 8dd9 25bf a14c 7fbf 9f5f 0a3e e8c2 d93e
00000350: 1881 84bc 4ccc 563e 191e 383f 31f1 a43e
00000360: 2c08 09bd fcb4 8bbc 4a5b 34bc 4026 3cbe
00000370: 5f99 24be 9361 abbd e09f 31bd bdf7 0cbe
00000380: 2c6a 19be 0407 8e3e 5f88 11bc 90cb ea3c
00000390: 04cc d33e a064 4d3e d10e f23d 996e e83d
000003a0: 0151 81bc 307b b63d be0d 8cbc 7bef 17bd
000003b0: 62ef 2bbe 87bf 87bd f3e1 9bbd 3d9b e8bd
000003c0: f6e3 c03d 9447 25be d19a 27be 635d 443e
000003d0: 19df 2ebd 9fe5 3c3e 8638 e0bd c7fe 8c3d
000003e0: 30fb e2bd a627 03be d94e 6abe 04fc 9fbd
000003f0: 8a58 7d3e 0e03 1dbd de16 743e f5e3 833d

fc1.bias f4 [120]
0.0135766 -0.093443565 -0.007946824 -0.011174847 -0.033201788 -0.02211173 -0.029757086 0.059323296
-0.06745331 -0.008211134 -0.06441905 0.04613579 0.019272033 -0.0011227116 0.0017648921 -0.06130741
0.0326105 0.0575431 0.102469526 0.014482898 -0.0025211952 0.0977439 -0.044600148 -0.0052721603
-0.031314347 0.04957434 0.0101330625 -0.012908121 -0.03832668 0.012181633 0.022553034 -0.052328385
0.025709765 0.02372596 -0.04746621 0.012844501 -0.02270551 -0.0044604717 -0.0049700597 -0.011474321
-0.0008593654 0.051511634 -0.026341451 0.11308238 0.024584476 0.004001283 0.00798491 -0.030685205
-0.0011870703 0.0022455861 0.04060249 -0.0069981213 0.06725841 -0.070410214 0.012018177 0.0006654684
0.022003544 0.0071530608 0.015354763 -0.06999776 0.038834028 0.023211777 0.0037299013 0.03243252
0.01889694 0.02965889 0.049827617 0.2608666 0.044783637 0.1105806 -0.06474474 0.0041721305
0.030313052 -0.0016664428 0.02030774 0.10565978 0.043944556 -0.0778627 -0.031099157 -0.066048086
0.047789525 0.027700817 -0.0012329379 0.02099158 0.0010952431 0.05617768 0.101482145 -0.026442718
-0.021576585 -0.007432642 0.03002768 0.021494245 0.11357978 0.03986657 0.061968673 0.0024164843
-0.021628348 0.0017045912 0.0109456405 -0.021462666 0.008535211 -0.04405575 -0.02170635 0.0100626955
-0.016561516 0.013363373 -0.04808833 0.041200016 0.04697274 -0.057879187 0.120536216 -0.08889073
0.049802344 -0.019443685 0.026710631 -0.011863881 -0.070571356 0.05526361 0.021233743 -0.0029830972
00000000: 6370 5e3c 575f bfbd 6533 02bc b516 37bc
00000010: 99fe 07bd a923 b5bc 22c5 f3bc fcfc 723d
00000020: f624 8abd fe87 06bc 23ee 83bd e2f8 3c3d
00000030: 62e0 9d3c f327 93ba f453 e73a 7b1d 7bbd
00000040: 9692 053d 50b2 6b3d 8bdb d13d ad49 6d3c
00000050: a33a 25bb f42d c83d a5ae 36bd 16c2 acbb
00000060: 7943 00bd 770e 4b3d 2505 263c 957c 53bc
00000070: 70fc 1cbd 7995 473c 24c1 b83c 4a56 56bd
00000080: 499d d23c f25c c23c ee6b 42bd be71 523c
00000090: e800 babc 2629 92bb e2db a2bb cafe 3bbc
000000a0: 0947 61ba ddfd 523d 07ca d7bc bc97 e73d
000000b0: 6265 c93c 321d 833b 24d3 023c 8a5f fbbc
000000c0: 7897 9bba af2a 133b cc4e 263d 7f50 e5bb
000000d0: c7be 893d 3b33 90bd e3e7 443c d472 2e3a
000000e0: c740 b43c 3964 ea3b 8b92 7b3c fc5a 8fbd
000000f0: 6e10 1f3d a026 be3c 5c71 743b f6d7 043d
00000100: c1cd 9a3c 33f7 f23c 0b18 4c3d 4f90 853e
00000110: 0c6f 373d 1578 e23d e498 84bd 5eb6 883b
00000120: 1453 f83c 8b6c daba 6b5c a63c 2864 d83d
00000130: 35ff 333d 7b76 9fbd a9c3 febc 3844 87bd
00000140: f3be 433d d3ec e23c 889a a1ba 89f6 ab3c
00000150: 438e 8f3a 911a 663d dfd5 cf3d 669e d8bc
00000160: 61c1 b0bc 858d f3bb 9cfc f53c b314 b03c
00000170: 849c e83d 214b 233d ddd2 7d3d e15d 1e3b
00000180: ef2d b1bc 976c df3a 5855 333c 79d2 afbc
00000190: 45d7 0b3c cd73 34bd 84d1 b1bc 01de 243c
000001a0: 04ac 87bc 0cf2 5a3c 45f8 44bd 59c1 283d
000001b0: 7d66 403d ba12 6dbd b1db f63d 580c b6bd
000001c0: 8bfd 4b3d 5d48 9fbc 41d0 da3c b960 42bc
000001d0: b787 90bd 185c 623d 63f2 ad3c 1180 43bb

fc1.weight f4 [120, 400]
-0.1318505 -0.04924513 -0.08153338 -0.16286035 -0.2093921 -0.03303646 -0.043640733 -0.10649492
-0.08126363 -0.06977774 -0.14105998 -0.16767175 -0.16787203 0.0057393345 -0.07504615 -0.14686975
-0.09693316 -0.028254643 0.041848235 0.021389574 -0.023038073 -0.010895438 0.05367862 0.013706688
0.1208456 -0.17474829 0.051805437 0.17261155 -0.07425937 -0.112173244 -0.25551537 0.04040564
0.13523416 -0.11703889 0.03676925 -0.26331154 -0.052462824 -0.0056416895 -0.21031411 -0.08526418
-0.063378684 -0.035661772 0.0010629855 -0.104455836 0.098217845 0.059286263 0.08506232 -0.01588583
0.033983313 0.047794245 0.03206292 -0.0384387 -0.09901869 -0.15501931 0.104800396 -0.020201137
0.073238514 -0.011878767 0.14603652 0.15857138 -0.00022423602 0.06414781 0.069330156 0.040865194
0.14669338 -0.13739295 -0.11764117 0.0058844625 -0.016631573 -0.14332 -0.10491904 -0.122432314
-0.09127451 0.07353699 0.08314688 -0.042294227 0.017274462 0.06279372 -0.046328843 -0.20461784
-0.14540324 0.03360653 -0.021381898 -0.116856 -0.066037886 -0.17342207 -0.05968586 -0.16443369
-0.06619143 -0.061215904 -0.05355293 -0.0792766 -0.07362091 0.14577432 0.13180287 0.031436097
0.048020743 -0.01744013 -0.009408615 -0.015047598 0.043651547 -0.04580492 -0.072731815 -0.06362167
-0.012923441 -0.0110261375 -0.08794748 -0.11700583 -0.033553652 -0.0467751 0.05319187 0.016692705
0.0017647721 -0.027434627 0.0145241115 -0.024825973 0.02701138 0.08078672 0.016246567 -0.07038519
0.03687394 0.010662311 0.022755709 0.09543842 0.021329114 -0.013399709 0.09615888 0.14636216
0.07162817 -0.001392119 -0.13881631 -0.07950974 0.026802452 0.003912827 0.026408007 -0.19255044
0.06041785 -0.03423072 -0.07139215 -0.115873486 -0.06270022 0.072336465 -0.036943533 0.027989585
-0.0124393245 -0.07953081 0.23185754 -0.0058867186 -0.011848456 -0.02459237 -0.1481221 -0.0048023844
0.06605994 0.06461415 -0.012781186 -0.19975547 -0.11067555 -0.057953067 -0.10134446 -0.24991114
-0.10991265 -0.00812534 0.057021122 -0.08484676 -0.2115137 -0.11943923 -0.05928139 0.00599841
-0.037866615 0.1064101 -0.0041296068 0.025539516 0.0012028599 0.035098206 0.17232496 0.012360783
0.007288827 0.029819544 -0.037733097 -0.03435834 0.010939897 0.028777974 0.004636716 0.0013890323
-0.05275205 0.029879058 -0.038642805 -0.032596543 -0.055943385 -0.005118777 -0.04572903 -0.019748123
-0.02711637 0.0036533405 0.0046246224 0.021991314 0.033177853 -0.04345643 0.033565275 0.03892776
0.03477951 0.0051283212 0.03345841 -0.018542605 -0.0052742288 -0.036402807 -0.020747546 0.051220987
-0.0050655906 0.018838417 0.012083964 0.05109385 -0.017281359 -0.031351063 0.017025337 -0.023973584
0.017195882 0.008713205 -0.020460574 0.06412285 -0.02202549 -0.04427982 0.0077440054 0.049165096
-0.010514447 0.052701242 0.057723183 -0.11035963 -0.039724384 0.021764625 0.012640027 0.16395655
0.055346556 0.08027922 -0.031858083 -0.076651186 0.055032857 0.014798226 -0.04643545 -0.1364759
-0.040105436 0.00764276 -0.026901856 -0.09928258 -0.18130018 -0.06949555 0.009653121 0.016052525
-0.11192965 -0.06142571 -0.0603308 0.02780211 0.044443946 0.107109115 0.12334362 -0.12873955
00000000: d103 07be 43b5 49bd f9fa a6bd ddc4 26be
00000010: e26a 56be 3d51 07bd a0c0 32bd 021a dabd
00000020: 8c6d a6bd a2e7 8ebd 0772 10be 25b2 2bbe
00000030: a5e6 2bbe 0711 bc3b ccb1 99bd 0665 16be
00000040: e584 c6bd 4876 e7bc 0e69 2b3d 3039 af3c
00000050: 57ba bcbc c782 32bc 1dde 5b3d 0492 603c
00000060: e67d f73d 37f1 32be f031 543d 15c1 303e
00000070: 4c15 98bd 16bb e5bd e9d2 82be 6280 253d
00000080: d37a 0a3e 16b2 efbd 5a9b 163d c5d0 86be
00000090: 42e3 56bd ecdd b8bb 955c 57be fd9e aebd
000000a0: afcc 81bd 1412 12bd e053 8b3a f1ec d5bd
000000b0: 7026 c93d 27d6 723d 2735 ae3d 0023 82bc
000000c0: 1632 0b3d e6c3 433d 6954 033d e671 1dbd
000000d0: 50ca cabd 62bd 1ebe 97a1 d63d db7c a5bc
000000e0: 13fe 953d 299f 42bc 998a 153e 8960 223e
000000f0: e620 6bb9 ed5f 833d f8fc 8d3d 4362 273d
00000100: ca36 163e bdb0 0cbe dbed f0bd 73d2 c03b
00000110: f03e 88bc 7ac2 12be cbdf d6bd cbbd fabd
00000120: 21ee babd 909a 963d e948 aa3d b63c 2dbd
00000130: 2c83 8d3c fe99 803d 50c3 3dbd 5787 51be
00000140: 96e4 14be 00a7 093d 1729 afbc 3352 efbd
00000150: df3e 87bd 8e95 31be 2979 74bd 4e61 28be
00000160: 5f8f 87bd 87bd 7abd 515a 5bbd c55b a2bd
00000170: 8fc6 96bd dd45 153e 55f7 063e 23c3 003d
00000180: 66b1 443d 9ade 8ebc 9726 1abc 338a 76bc
00000190: f7cb 323d f19d 3bbd 6bf4 94bd 144c 82bd
000001a0: d7bc 53bc f9a6 34bc cf1d b4bd c1a0 efbd
000001b0: 8e6f 09bd 3f97 3fbd b8df 593d 24bf 883c
000001c0: ed4f e73a 95be e0bc 8af6 6d3c d75f cbbc
000001d0: f846 dd3c 8273 a53d 8517 853c 1c26 90bd
000001e0: 2109 173d f9b0 2e3c 2e6a ba3c 3875 c33d
000001f0: 65ba ae3c 748a 5bbc f2ee c43d f6df 153e
00000200: cab1 923d c377 b6ba dd25 0ebe 01d6 a2bd
00000210: d190 db3c 2c37 803b 9b55 d83c f12b 45be
00000220: b578 773d 8335 0cbd 0c36 92bd 144f edbd
00000230: f968 80bd 2425 943d 1a52 17bd 6a4a e53c
00000240: 4fce 4bbc 0de1 a2bd 106c 6d3e 60e5 c0bb
00000250: 0720 42bc f075 c9bc 52ad 17be 525d 9dbb
00000260: 6f4a 873d 6c54 843d 2e68 51bc b38c 4cbe
00000270: dda9 e2bd 3260 6dbd af8d cfbd b5e8 7fbe
00000280: e219 e1bd 2520 05bc fb8e 693d 23c4 adbd
00000290: 0c97 58be 8e9c f4bd 0bd1 72bd 4f8e c43b
000002a0: 061a 1bbd 8aed d93d a751 87bb 3f38 d13c
000002b0: 48a9 9d3a 23c3 0f3d f475 303e e284 4a3c
000002c0: 1dd7 ee3b 1e48 f43c 058e 1abd 55bb 0cbd
000002d0: 413d 333c c9bf eb3c 98ef 973b 3110 b63a
000002e0: 8912 58bd edc4 f43c eb47 1ebd f483 05bd
000002f0: e424 65bd 6abb a7bb 5d4e 3bbd d1c6 a1bc
00000300: 2623 debc e26c 6f3b 258a 973b 2127 b43c
00000310: 80e5 073d 5fff 31bd be7b 093d b772 1f3d
00000320: f674 0e3d 7a0b a83b b00b 093d a9e6 97bc
00000330: 70d3 acbb 1c1b 15bd c2f6 a9bc 19cd 513d
00000340: 41fd a5bb 0653 9a3c d2fb 453c c947 513d
00000350: a391 8dbc f969 00bd b878 8b3c 4064 c4bc
00000360: 61de 8c3c d5c1 0e3c ef9c a7bc d752 833d
00000370: cd6e b4bc c25e 35bd 6dc1 fd3b 5761 493d
00000380: ca44 2cbc 42dd 573d 256f 6c3d 3b04 e2bd
00000390: 09b6 22bd ba4b b23c 1e18 4f3c 3ae4 273e
000003a0: 12b3 623d 6f69 a43d 9f7d 02bd 4cfb 9cbd
000003b0: 226a 613d 4274 723c 1933 3ebd 57c0 0bbe
000003c0: 9945 24bd 1e70 fa3b 4861 dcbc aa54 cbbd
000003d0: c1a6 39be af53 8ebd 2028 1e3c 9680 833c
000003e0: 5f3b e5bd 8699 7bbd 6e1d 77bd 40c1 e33c
000003f0: db0a 363d 065c db3d 949b fc3d 4dd4 03be

fc2.bias f4 [48]
-0.17551526 0.2637458 -0.025459921 0.02009278 -0.035847157 -0.0102194175 0.16940042 -0.07416258
-0.080704674 0.18294929 0.0034899265 0.05484655 0.021564366 -0.09909334 0.14043932 -0.03839726
0.12397808 0.29064718 0.28849018 0.01690001 -0.07773749 -0.018794367 0.13346812 -2.924366e-05
0.04346901 0.10945061 -0.088282645 -0.0580286 -0.05937915 0.004010124 0.064638406 -0.03546917
-0.031108817 0.011323454 0.18620533 0.04164004 -0.07985366 0.16856883 0.024798332 0.19715783
0.05089839 0.12465656 0.010660731 -0.05348504 -0.045624856 0.14287883 0.07948496 -0.064806886
00000000: 46ba 33be b109 873e 5391 d0bc 9d99 a43c
00000010: 78d4 12bd 586f 27bc 4e77 2d3e 8de2 97bd
00000020: 7e48 a5bd 0f57 3b3e 40b7 643b c7a6 603d
00000030: c1a7 b03c 73f1 cabd 53cf 0f3e 7246 1dbd
00000040: 38e8 fd3d b5cf 943e fcb4 933e e471 8a3c
00000050: d534 9fbd a5f6 99bc deab 083e 4850 f5b7
00000060: 900c 323d a427 e03d 88cd b4bd 66af 6dbd
00000070: 8d37 73bd 5c67 833b 2461 843d 1f48 11bd
00000080: ebd7 febc 0286 393c 9cac 3e3e bf8e 2a3d
00000090: 518a a3bd 4f9d 2c3e df25 cb3c bee3 493e
000000a0: d57a 503d f04b ff3d 59aa 2e3c 2113 5bbd
000000b0: 21e1 3abd d44e 123e 03c9 a23d 79b9 84bd

fc2.weight f4 [48, 120]
0.1086828 0.19963866 -0.0011393923 0.19639404 0.068388 0.07144744 0.18006085 -0.20102149
-0.1315626 0.33603898 -0.026601616 0.11398615 -0.29340187 0.10161691 -0.08395269 0.17704977
0.29087874 -0.005814669 0.11663825 0.11365191 -0.01428523 0.07208491 0.02645294 0.21274655
0.091646 0.15419593 0.044747535 0.009094911 0.066539094 0.015011682 -0.009055356 0.0656343
-0.02287335 -0.07720084 0.08049537 0.11215758 0.05166651 0.027759137 -0.12870891 -0.078866474
-0.012313034 -0.041631173 -0.022873987 -0.14483936 -0.035791837 0.05005772 -0.045565486 0.09126205
-0.059145395 -0.103407785 -0.004758298 -0.28014517 -0.0027965824 0.13608336 -0.17551805 0.0741598
-0.021817397 -0.08914625 -0.2921139 0.26443154 0.08378968 0.21936496 0.21516041 0.07190919
-0.024243046 0.013824467 -0.22763589 -0.6997897 0.18626283 -0.15949151 -0.0026964406 0.36333725
0.165332 -0.0184823 -0.31944144 0.08707259 0.092988476 0.15231688 0.25177225 -0.10276634
-0.105359614 0.0041676383 -0.16188547 0.34738436 -0.027601082 0.017307926 0.14865358 -0.060753264
-0.06306893 -0.048012767 0.043972094 0.10461179 0.021034244 -0.110590935 0.08564176 0.008704817
-0.17069192 0.062618546 -0.23993935 0.08314814 -0.027764278 -0.10045079 0.15509497 0.40198392
-0.013682646 0.16888699 0.06167493 -0.18269359 -0.29563823 -0.17614408 -0.4526746 -0.13026853
-0.27174804 0.1128451 -0.052963708 0.042513747 0.119953945 -0.0558088 0.17720571 0.020511223
0.123785 -0.13158174 -0.14519525 -0.11690225 -0.059029613 -0.08444943 -0.28037766 0.20558919
-0.16556199 -0.21397299 -0.055721276 -0.06044307 0.09611026 0.015317832 0.07228874 -0.073508665
0.042090777 0.23205785 0.06525832 -0.14086142 0.2413914 0.19516674 -0.3568449 -0.008087296
0.02546082 0.21591365 0.046106376 0.023515182 -0.055499144 0.026373431 0.011748915 -0.04385253
-0.03318814 0.16623774 -0.0227184 0.11945262 -0.15399961 0.059168752 0.055256683 -0.019629942
0.24262965 -0.007382078 -0.21766783 0.18620339 0.031726606 0.050778806 -0.10571573 0.07218253
0.2681262 0.26093677 -0.11154759 -0.049427606 0.27663752 -0.046047855 -0.31308335 -0.17879446
0.20626609 -0.07614988 0.20908335 -0.074871816 -0.026990432 0.077287175 -0.017744359 0.14934844
-0.18041568 0.12500054 -0.20861195 0.15015185 0.13107438 0.01945364 -0.19771728 -0.059830684
-0.22902194 -0.25795808 0.14249104 0.40843236 0.23789228 -0.15026854 -0.16475067 0.009547055
0.23922826 0.08855174 0.026771 -0.07421875 -0.08686197 -0.025536017 0.3557433 0.041348994
-0.11339083 -0.30632395 0.12681444 -0.06235433 0.212028 -0.17798637 0.013262008 0.3065032
-0.039154563 -0.12414792 -0.35800472 -0.024429252 0.010651872 0.12094469 -0.1304735 0.12602197
-0.0578055 0.2842319 0.1951733 -0.24779934 -0.21604939 -0.37103128 0.049545646 -0.26609522
-0.036670752 0.14493702 -0.19634774 -0.02632126 -0.4478742 0.13492 -0.09444111 0.041552123
0.17039268 0.07500813 -0.28789425 0.089552164 -0.054218564 0.04554112 -0.24695486 0.038569152
-0.052821647 0.09304491 -0.04629872 -0.15739492 0.066036776 0.30734175 0.2002124 -0.02021711
00000000: 1695 de3d 146e 4c3e a957 95ba 851b 493e
00000010: 020f 8c3d 0953 923d df61 383e 94d8 4dbe
00000020: 59b8 06be 4d0d ac3e a2eb d9bc 9271 e93d
00000030: c538 96be 871c d03d 63ef abbd 894c 353e
00000040: 0fee 943e fb88 bebb 09e0 ee3d 55c2 e83d
00000050: 990c 6abc 41a1 933d d6b3 d83c 3bda 593e
00000060: e6b0 bb3d 8ae5 1d3e 3149 373d d202 153c
00000070: a645 883d 8ff3 753c ea5c 14bc 476b 863d
00000080: e460 bbbc 791b 9ebd c2da a43d e0b2 e53d
00000090: 43a0 533d 2167 e33c 45cc 03be bf84 a1bd
000000a0: 9cbc 49bc 7385 2abd 3a62 bbbc c550 14be
000000b0: 769a 12bd 5309 4d3d e0a2 3abd 99e7 ba3d
000000c0: 7142 72bd 76c7 d3bd 7feb 9bbb 306f 8fbe
000000d0: de46 37bb 7059 0b3e 01bb 33be 18e1 973d
000000e0: 66ba b2bc 4f92 b6bd f48f 95be 9263 873e
000000f0: ec99 ab3d 35a1 603e 0353 5c3e 2045 933d
00000100: 5a99 c6bc 0480 623c 6219 69be 6b25 33bf
00000110: afbb 3e3e be51 23be c4b6 30bb 5707 ba3e
00000120: cb4c 293e 3168 97bc d48d a3be 1d53 b23d
00000130: be70 be3d f5f8 1b3e 4be8 803e 2977 d2bd
00000140: c8c6 d7bd af90 883b 4ec5 25be 5ddc b13e
00000150: aa1b e2bc 5ac9 8d3c a538 183e 6ad8 78bd
00000160: 482a 81bd 09a9 44bd 151c 343d b53e d63d
00000170: 0250 ac3c 807d e2bd f264 af3d a69e 0e3c
00000180: ddc9 2ebe 273e 803d a9b2 75be 9249 aa3d
00000190: e971 e3bc 25b9 cdbd 37d1 1e3e d6d0 cd3e
000001a0: 2d2d 60bc b6f0 2c3e da9e 7c3d 0714 3bbe
000001b0: e55d 97be 1d5f 34be f7c4 e7be 1d65 05be
000001c0: 8f22 8bbe 551b e73d 79f0 58bd e522 2e3d
000001d0: 6aaa f53d c597 64bd 6a75 353e 2707 a83c
000001e0: fd82 fd3d 5dbd 06be 10ae 14be 726a efbd
000001f0: 09c9 71bd d3f3 acbd a98d 8fbe f985 523e
00000200: 1589 29be bc1b 5bbe fe3b 64bd 2793 77bd
00000210: 75d5 c43d a5f7 7a3c 1e0c 943d b68b 96bd
00000220: 6167 2c3d 93a0 6d3e 27a6 853d fa3d 10be
00000230: 4f2f 773e cad9 473e 60b4 b6be 9480 04bc
00000240: 3693 d03c 7818 5d3e 0ada 3c3d e9a2 c03c
00000250: 1253 63bd 180d d83c 857e 403c b69e 33bd
00000260: 49f0 07bd 3a3a 2a3e f01b babc 93a3 f43d
00000270: 13b2 1dbe ef5a 723d d554 623d f9ce a0bc
00000280: e873 783e 5ce5 f1bb 51e4 5ebe 1aac 3e3e
00000290: c2f3 013d 70fd 4f3d 7d81 d8bd 6fd4 933d
000002a0: d647 893e 8199 853e 1073 e4bd 9a74 4abd
000002b0: 6fa3 8d3e ad9c 3cbd 764c a0be e515 37be
000002c0: 6b37 533e 78f4 9bbd f219 563e 6556 99bd
000002d0: 0a1b ddbc bd48 9e3d 9e5c 91bc ccee 183e
000002e0: e3be 38be 2400 003e 5f9e 55be 68c1 193e
000002f0: 5d38 063e 3d5d 9f3c 6676 4abe 0511 75bd
00000300: ba84 6abe 1513 84be 2ce9 113e 0c1e d13e
00000310: 099a 733e ffdf 19be 66b4 28be 406b 1c3c
00000320: 41f8 743e 9d5a b53d db4e db3c 0000 98bd
00000330: b0e4 b1bd e930 d1bc fc23 b63e 905d 293d
00000340: 7439 e8bd 7ed6 9cbe a5db 013e 4167 7fbd
00000350: de1d 593e 0f42 36be e548 593c fded 9c3e
00000360: 8960 20bd 4441 febd 654c b7be db1f c8bc
00000370: 3085 2e3c dab1 f73d d89a 05be e70b 013e
00000380: 76c5 6cbd d886 913e 82db 473e 1cbf 7dbe
00000390: 0d3c 5dbe d0f7 bdbe 60f0 4a3d a23d 88be
000003a0: 1234 16bd 5f6a 143e 620f 49be af9f d7bc
000003b0: c44f e5be 7828 0a3e 576a c1bd 8f32 2a3d
000003c0: 6b7b 2e3e dd9d 993d e066 93be 2067 b73d
000003d0: 4914 5ebd 5389 3a3d bce1 7cbe b0fa 1d3d
000003e0: 835b 58bd 548e be3d baa3 3dbd 222c 21be
000003f0: 4a3e 873d e65b 9d3e 7b04 4d3e 5a9e a5bc

fc3.bias f4 [24]
-0.0074222637 0.08652531 -0.22090723 -0.1732767 -0.19765614 0.09038466 0.040190898 0.056660876
0.1619409 -0.30915028 0.077887855 0.04722548 0.19689478 -0.15281416 0.27511197 -0.31182146
-0.08196296 -0.19461797 0.12818368 -0.053503327 0.010315085 0.42890474 0.0056375745 -0.025891928
00000000: 7636 f3bb 2f34 b13d 8135 62be 726f 31be
00000010: 5f66 4abe 981b b93d 369f 243d 3c15 683d
00000020: d6d3 253e f248 9ebe ab83 9f3d 816f 413d
00000030: c99e 493e 517b 1cbe 7adb 8c3e 10a7 9fbe
00000040: 32dc a7bd ef49 47be 9542 033e 4e26 5bbd
00000050: 9a00 293c 6799 db3e 67bb b83b 4f1b d4bc

fc3.weight f4 [24, 48]
-0.26320076 -0.41223812 0.38129473 -0.12105551 -0.16879639 0.0803979 -0.4579097 -0.15325917
-0.043705914 -0.089729674 -0.35987574 -0.062680945 -0.09617018 -0.06717424 -0.115341775 0.15039733
-0.15803538 0.13396154 0.15059592 0.0645084 -0.5359114 0.05352173 0.21561883 -0.051419236
0.17533097 0.0005957023 0.12515792 0.4112803 0.1479356 0.022100495 0.28347617 0.022961536
-0.1426717 -0.24123083 0.15339379 -0.23812746 -0.15220472 -0.2898489 0.46146452 0.33297136
0.019942021 -0.13533552 -0.18673922 -0.0128987385 0.6927776 0.3100509 -0.23266853 0.123683326
-0.07393228 0.30551544 -0.1605919 -0.10804205 -0.035846584 -0.108272254 -0.020651309 -0.031244893
-0.12394326 -0.49210605 -0.11904959 -0.06217815 -0.1518316 0.25686893 -0.00085828145 -0.41087398
0.065223224 0.44235954 -0.06061076 -0.07806887 0.09359444 -0.12563734 0.37039095 -0.2321582
0.20227353 -0.0097047575 0.060114652 -0.2940881 0.1042487 0.028411549 -0.20705064 -0.30550155
0.20704699 -0.33503297 0.119868346 0.22065122 -0.279451 0.75712854 0.091226496 -0.085860915
-0.24609485 -0.2074335 0.35443628 -0.082255445 -0.32819358 -0.44082943 0.12326312 0.054276776
0.4428259 -0.5182706 -0.020736385 0.14266759 -0.100347884 0.046754856 -0.21645208 0.07125203
-0.05924843 -0.32049838 -0.31274647 -0.13312261 -0.18242125 0.28057063 0.28713232 0.52157676
-0.25677243 0.09324064 -0.5756817 -0.016466385 0.28526866 -0.27368355 -0.12941878 -0.028874867
0.114426926 0.06711902 -0.11693577 -0.22893539 0.026892599 -0.20928495 -0.14480917 -0.00787073
-0.27675995 0.603318 -0.33754182 0.44455817 0.13038826 -0.27224076 -0.039421104 -0.4302027
0.33094636 -0.12972946 -0.2165092 -0.14519346 0.31824794 -0.2268411 -0.09102404 -0.07669866
0.5951021 0.073424645 0.2889109 0.24948171 -0.07511292 -0.11264736 -0.28027445 -0.09831923
-0.24949843 0.12101373 0.39289537 -0.20822863 -0.114520945 -0.055119675 -0.050293438 0.062465448
-0.43292326 0.1939516 -0.24167466 0.07321497 0.19608343 -0.11091601 -0.1526323 0.0013946583
0.4174798 -0.017030295 -0.15218736 0.5381109 0.075286224 0.08697373 -0.4126552 0.20129159
0.24394089 -0.32012802 0.44919312 -0.22765625 0.2518528 0.35421607 -0.06438982 -0.40605432
0.24731554 -0.23196368 0.2071128 0.025219671 -0.07551334 -0.4136032 -0.17495315 -0.053171087
-0.04929894 -0.430721 -0.0555604 -0.031390857 -0.1008789 0.137439 -0.09997192 -0.11762153
-0.1730234 0.00024607137 -0.019600267 -0.22906382 -0.10330781 0.3983813 0.37506005 0.46337104
-0.013842637 0.504833 -0.59780836 0.22886153 -0.34524107 0.103052266 0.49220172 -0.13920254
0.0745589 -0.08923017 0.22471353 0.11777925 0.45799312 0.28560624 -0.25113478 -0.12256602
0.07565207 0.030249977 -0.17138447 -0.3585249 0.15880477 0.3671603 -0.074919544 0.10844939
-0.09143688 -0.12500976 -0.18683915 -0.14291394 0.23623599 0.055912673 0.25406808 0.12696423
-0.19206007 0.02783688 -0.20924588 0.22023422 -0.1200174 -0.1912813 0.2932018 -0.021348827
0.0027119627 -0.1157898 0.057914093 0.039369084 0.47872418 0.32191253 -0.24418585 0.34283563
00000000: 40c2 86be e010 d3be 1039 c33e f4eb f7bd
00000010: f6d8 2cbe a7a7 a43d 2473 eabe f9ef 1cbe
00000020: f904 33bd 31c4 b7bd a241 b8be de5e 80bd
00000030: dff4 c4bd a692 89bd 4f38 ecbd c201 1a3e
00000040: 07d4 21be 372d 093e d135 1a3e fb1c 843d
00000050: 7d31 09bf 9a39 5b3d 2fcb 5c3e fa9c 52bd
00000060: f689 333e e828 1c3a 6629 003e 5593 d23e
00000070: 6e7c 173e 190c b53c ca23 913e d519 bc3c
00000080: 8818 12be 3705 77be 4313 1d3e afd7 73be
00000090: 8edb 1bbe 1367 94be 1445 ec3e 397b aa3e
000000a0: 735d a33c 6595 0abe 9138 3fbe 3b55 53bc
000000b0: df59 313f febe 9e3e a940 6ebe af4d fd3d
000000c0: cf69 97bd 856c 9c3e 3472 24be 2645 ddbd
000000d0: ded3 12bd d8bd ddbd ef2c a9bc 4af5 ffbc
000000e0: f7d5 fdbd 53f5 fbbe 45d0 f3bd 84ae 7ebd
000000f0: be79 1bbe 5384 833e 4bfe 60ba 135e d2be
00000100: c193 853d f37c e23e fd42 78bd 92e2 9fbd
00000110: 71ae bf3d 13a7 00be e2a3 bd3e e1ba 6dbe
00000120: cb20 4f3e b400 1fbc c83a 763d b792 96be
00000130: 5880 d53d 56bf e83c 1505 54be b36a 9cbe
00000140: 2004 543e 7189 abbe 897d f53d 65f2 613e
00000150: 3414 8fbe 2dd3 413f f5d4 ba3d d9d7 afbd
00000160: 4a00 7cbe 7369 54be ac78 b53e 8b75 a8bd
00000170: fd08 a8be 65b4 e1be 6071 fc3d 5351 5e3d
00000180: 14ba e23e 62ad 04bf 5adf a9bc 7417 123e
00000190: 3183 cdbd 0582 3f3d 9da5 5dbe 96ec 913d
000001a0: 7bae 72bd 5d18 a4be 4e20 a0be 4b51 08be
000001b0: a3cc 3abe f4a6 8f3e 0203 933e 0e86 053f
000001c0: ad77 83be f3f4 be3d e05f 13bf 83e4 86bc
000001d0: bc0e 923e 4020 8cbe 5b86 04be fc8a ecbc
000001e0: aa58 ea3d b275 893d 057c efbd 0a6e 6abe
000001f0: de4d dc3c cb4e 56be db48 14be 3cf4 00bc
00000200: 7bb3 8dbe 0c73 1a3f 48d2 acbe 219d e33e
00000210: 8084 053e 2463 8bbe 0678 21bd 8743 dcbe
00000220: cd71 a93e cdd7 04be 96b4 5dbe 98ad 14be
00000230: 65f1 a23e 0949 68be d06a babd 3014 9dbd
00000240: 9c58 183f a95f 963d 21ec 933e 2278 7f3e
00000250: cdd4 99bd a9b3 e6bd 2280 8fbe 985b c9bd
00000260: 847c 7fbe 0cd6 f73d 9529 c93e e339 55be
00000270: f589 eabd 2bc5 61bd 7e00 4ebd c5db 7f3d
00000280: 1ea8 ddbe 409b 463e 9079 77be bbf1 953d
00000290: 18ca 483e ef27 e3bd a44b 1cbe f8cc b63a
000002a0: eabf d53e 1e83 8bbc 01d7 1bbe a3c1 093f
000002b0: aa2f 9a3d 481f b23d 8b47 d3be 621f 4e3e
000002c0: a4cb 793e d2e7 a3be a4fc e53e b81e 69be
000002d0: daf2 803e cf5b b53e cfde 83bd 5ae6 cfbe
000002e0: 4940 7d3e e387 6dbe 6115 543e 7c99 ce3c
000002f0: bda6 9abd ccc3 d3be eb26 33be edc9 59bd
00000300: afed 49bd 7787 dcbe 4d93 63bd b393 00bd
00000310: 9999 cebd cfbc 0c3e 14be ccbd 8fe3 f0bd
00000320: 0c2d 31be 2403 8139 bd90 a0bc b58f 6abe
00000330: 0c93 d3bd a2f8 cb3e df07 c03e f83e ed3e
00000340: 3acc 62bc bc3c 013f f809 19bf ad5a 6a3e
00000350: 70c3 b0be 110d d33d dd01 fc3e 1c8b 0ebe
00000360: 56b2 983d 4fbe b6bd 4e1b 663e 3f36 f13d
00000370: 137e ea3e fb3a 923e bd94 80be e503 fbbd
00000380: 79ef 9a3d cdce f73c 697f 2fbe 9390 b7be
00000390: b89d 223e 6ffc bb3e 6b6f 99bd b71a de3d
000003a0: 4243 bbbd 8f02 00be c352 3fbe 0858 12be
000003b0: d9e7 713e b004 653d 3615 823e e902 023e
000003c0: 65ab 44be 2b0a e43c 8d44 56be 1485 613e
000003d0: afcb f5bd 3fdf 43be 8c1e 963e bce3 aebc
000003e0: 2fbb 313b 3423 edbd 5437 6d3d 7a41 213d
000003f0: 561b f53e b8d1 a43e db0b 7abe 2788 af3e
