DLRV_SignLanguageToText/Code1/signlanguage_kaggle.onnx (onnx, 226863 bytes, 12 tensors)

conv1.bias f4 [6]
0.015951091 -0.42138883 -0.6153943 -0.17820147 0.2612281 0.22179465
00000000: ddab 823c 47c0 d7be 7b8a 1dbf 727a 36be
00000010: b1bf 853e 231e 633e

conv1.weight f4 [6, 1, 3, 3]
-0.20942035 -1.4701715 -0.15770814 -0.16993235 -0.7011126 0.23661785 0.46325508 0.58003426
1.2238561 -0.3739643 0.22963402 0.8389772 -0.2997777 -0.07385213 0.6156618 -0.55011827
-0.33981726 -0.0141503485 -0.27097905 -0.030590639 -0.26974124 0.48968735 0.2401102 0.08706867
0.4445815 -0.09539759 0.4136448 0.9600751 -0.8816058 -0.8251489 0.43829378 -0.56239367
0.033169825 0.8087853 -0.31529602 0.2534922 -0.0029764974 0.2850277 0.42031747 0.2319156
0.05199465 0.45565313 -0.3324131 0.07582243 -0.39936852 -0.44961998 -0.3717642 0.30465683
-0.6154794 0.6407229 0.37322992 -0.11321448 0.6592412 0.26062045
00000000: 4a72 56be 942e bcbf 3e7e 21be bf02 2ebe
00000010: 1e7c 33bf f34b 723e c52f ed3e 207d 143f
00000020: 51a7 9c3f 4078 bfbe 2e25 6b3e 36c7 563f
00000030: 767c 99be c93f 97bd 039c 1d3f 8dd4 0cbf
00000040: 87fc adbe ddd6 67bc c4bd 8abe 3899 fabc
00000050: 861b 8abe 4db8 fa3e 73df 753e 0f51 b23d
00000060: 30a0 e33e d05f c3bd 40c9 d33e 7bc7 753f
00000070: ebb0 61bf f53c 53bf 0b68 e03e 08f9 0fbf
00000080: 15dd 073d 8e0c 4f3f 7b6e a1be bbc9 813e
00000090: 5711 43bb 27ef 913e da33 d73e 487b 6d3e
000000a0: 58f8 543d 5e4b e93e 0d32 aabe ca48 9b3d
000000b0: 087a ccbe 9734 e6be e157 bebe fbfb 9b3e
000000c0: 0f90 1dbf 6a06 243f fe17 bf3e fedc e7bd
000000d0: 08c4 283f 0b70 853e

conv2.bias f4 [6]
0.29333287 0.023685608 0.08910263 0.452094 -0.21401235 0.094785444
00000000: ba2f 963e 5208 c23c 717b b63d dd78 e73e
00000010: 0e26 5bbe df1e c23d

conv2.weight f4 [6, 6, 3, 3]
-0.31748363 -0.052784067 0.07838174 -0.3253016 -0.36097655 -0.3907718 0.13765554 0.011781256
-0.086036436 -0.25857753 -0.05438776 -0.05688714 0.05041017 -0.08372651 -0.048477866 0.028159939
-0.16829868 -0.26948842 0.03916654 0.20018399 0.4040742 -0.13245125 0.058900703 0.13684271
-0.17417115 -0.06587912 0.3668724 -0.26399323 -0.25362888 -0.050838437 -0.31999728 -0.1282052
-0.11661984 -0.13156097 0.10033991 -0.24166137 0.0051295613 -0.0641065 -0.07686038 -0.0887689
0.122329034 0.193543 0.060541064 0.12717596 0.41706967 -0.12102985 0.05499092 0.20394365
0.23596185 0.123022035 0.24475461 0.16494626 0.16288376 0.4710643 0.004768199 -0.26015225
-0.25708064 -0.032969687 -0.19695018 -0.03826772 0.02544165 -0.19538134 -0.05174968 0.4223476
0.31117466 0.040529795 0.15006258 0.14719296 0.24111982 -0.059347507 0.024322541 0.34949118
-0.01406759 0.013666775 0.06122628 -0.12875769 -0.14072363 -0.08321921 -0.020868601 -0.015121964
-0.1938736 0.11259634 -0.06718803 0.056467745 -0.0019077115 -0.2044731 0.060558587 -0.043585453
-0.14397703 -0.10097349 -0.035594378 0.114238836 0.48794383 -0.45626554 -0.15799057 0.32330522
-0.61349046 -0.3449559 0.17730673 -0.019081928 0.45625356 0.23639461 -0.06298684 -0.012890036
0.114043415 -0.48618966 -0.22464493 0.11934813 0.04662338 0.27301735 0.45986614 -0.4564491
0.14915733 0.4618496 -0.56259644 -0.28748465 0.1553672 -0.09777214 0.02407916 -0.15523183
-0.15068369 -0.048036866 -0.1590152 -0.07272042 -0.17250153 -0.35057428 0.17392656 0.0027867781
-0.034400005 0.08535874 0.058592938 -0.109621294 0.1753847 0.2053849 0.08838282 0.3051681
0.4914595 -0.03840306 0.40160522 0.22834873 -0.17090406 0.15704285 0.08954059 -0.27153283
-0.38496837 -0.36060598 -0.34586352 0.10482145 0.1085561 -0.09707502 0.43931735 0.2143103
0.15822622 -0.16532415 -0.24748936 0.29019994 -0.09211114 -0.37706503 -0.01114468 0.31585053
-0.16226329 0.01727735 -0.18574779 -0.2988466 -0.37889427 -0.18533526 -0.30099663 -0.37628588
-0.5710189 -0.21412727 -0.5845632 -0.017196152 -0.10415457 -0.06107613 -0.1261824 -0.1731066
-0.11539103 0.09571744 -0.054002237 0.13352999 0.20296085 0.27556282 -0.037960585 -0.034570247
0.2083449 0.09988623 -0.14659883 -0.27722025 -0.1667912 -0.2755358 -0.16512488 -0.27136272
-0.022967674 -0.020314401 -0.08686894 0.109653704 -0.13297772 -0.026076121 0.26701882 0.32523564
0.4869277 0.0051269834 0.015469963 0.113921195 -0.17078044 0.22231844 -0.21394035 0.39721555
0.36869615 0.20878427 0.23954086 -0.24115866 0.079290114 -0.48411176 -0.40844053 -0.3536481
-0.26292738 0.08675454 0.20621267 0.13369164 0.31932992 0.056427535 0.3386272 0.067132734
-0.22460888 -0.26631752 -0.1605932 -0.21694909 -0.08569511 -0.16760291 -0.2280651 -0.16941841
0.1899702 -0.14531209 -0.0014386788 -0.22544779 -0.024413941 -0.14621998 -0.07964978 0.18090118
0.13952446 0.071069606 0.2216329 0.339546 0.059131026 -0.006027716 0.18893284 -0.26132455
-0.15874797 0.054480523 -0.38775456 -0.1622171 -0.17615657 -0.42532304 -0.47239834 -0.13732485
00000000: 378d a2be 1b34 58bd 9b86 a03d ee8d a6be
00000010: ebd1 b8be 3e13 c8be 93f5 0c3e 2b06 413c
00000020: df33 b0bd 4664 84be b3c5 5ebd 7d02 69bd
00000030: e57a 4e3d ce78 abbd ba90 46bd acaf e63c
00000040: 7d56 2cbe 63fa 89be 186d 203d 08fd 4c3e
00000050: d0e2 ce3e 4da1 07be dd41 713d 7f20 0c3e
00000060: ec59 32be a2eb 86bd b3d6 bb3e 1f2a 87be
00000070: a5db 81be f73b 50bd afd6 a3be 3948 03be
00000080: 62d6 eebd ebb7 06be 037f cd3d 1476 77be
00000090: e115 a83b 454a 83bd fa68 9dbd 78cc b5bd
000000a0: a587 fa3d 2330 463e e8f9 773d 6a3a 023e
000000b0: 288a d53e 7fde f7bd 293e 613d 9bd6 503e
000000c0: fc9f 713e faf2 fb3d f4a0 7a3e ace7 283e
000000d0: 00cb 263e 572f f13e 8d3e 9c3b ad32 85be
000000e0: 13a0 83be 390b 07bd 4fad 49be 9dbe 1cbd
000000f0: 026b d03c 0c12 48be 79f7 53bd f23d d83e
00000100: 4952 9f3e 9202 263d 01aa 193e c0b9 163e
00000110: 1de8 763e 5f16 73bd 1140 c73c 82f0 b23e
00000120: c07b 66bc 9cea 5f3c 68c8 7a3d 0ed9 03be
00000130: db19 10be d56e aabd a1f4 aabc 1dc2 77bc
00000140: cd86 46be e998 e63d e199 89bd b94a 673d
00000150: 2d0c faba 6561 51be 480c 783d a986 32bd
00000160: b76e 13be 30cb cebd 69cb 11bd 0df6 e93d
00000170: c6d3 f93e a39b e9be 48c8 21be 4388 a53e
00000180: b60d 1dbf 0f9e b0be e58f 353e b451 9cbc
00000190: 119a e93e 6e11 723e 3fff 80bd bb30 53bc
000001a0: 988f e93d daed f8be 5209 66be cb6c f43d
000001b0: 28f8 3e3d eec8 8b3e 9373 eb3e b2b3 e9be
000001c0: b3bc 183e 8d77 ec3e 5206 10bf 3031 93be
000001d0: 9418 1f3e c23c c8bd a941 c53c 18f5 1ebe
000001e0: d34c 1abe 4ec2 44bd e1d4 22be 72ee 94bd
000001f0: 3ea4 30be 797e b3be ce19 323e 61a2 363b
00000200: 05e7 0cbd 90d0 ae3d 26ff 6f3d 2181 e0bd
00000210: 0c98 333e 6b50 523e 0d02 b53d fe3e 9c3e
00000220: 94a0 fb3e 874c 1dbd 339f cd3e 40d4 693e
00000230: 7901 2fbe d7cf 203e 0f61 b73d 5a06 8bbe
00000240: 931a c5be 59a1 b8be 0615 b1be a1ac d63d
00000250: a952 de3d 45cf c6bd 34ee e03e 2974 5b3e
00000260: 0e06 223e bc4a 29be da6d 7dbe 1695 943e
00000270: c4a4 bcbd ab0e c1be 2d98 36bc 29b7 a13e
00000280: 5928 26be 3b89 8d3c ab34 3ebe 6c02 99be
00000290: 6efe c1be 87c8 3dbe 3b1c 9abe 8ba8 c0be
000002a0: 4b2e 12bf 2e44 5bbe efa5 15bf f2de 8cbc
000002b0: fe4e d5bd f72a 7abd f635 01be db42 31be
000002c0: 2252 ecbd 8107 c43d 7331 5dbd 16bc 083e
000002d0: f8d4 4f3e 9216 8d3e 8f7c 1bbd 8899 0dbd
000002e0: 5e58 553e 2791 cc3d 011e 16be d0ef 8dbe
000002f0: 50cb 2abe 0713 8dbe 7f16 29be 0ef0 8abe
00000300: b426 bcbc 636a a6bc 58e8 b1bd 1f92 e03d
00000310: 502b 08be 979d d5bc b1b6 883e 4985 a63e
00000320: 964e f93e 4100 a83b ba75 7d3c 844f e93d
00000330: 11e1 2ebe 72a7 633e 2e13 5bbe d65f cb3e
00000340: bec5 bc3e 8bcb 553e 334a 753e 4cf2 76be
00000350: db62 a23d 7fdd f7be 1e1f d1be 5d11 b5be
00000360: 6b9e 86be 5dac b13d 6a29 533e 76e6 083e
00000370: 367f a33e 8f20 673d 8b60 ad3e e37c 893d
00000380: dfff 65be c55a 88be 8b72 24be e727 5ebe
00000390: eb80 afbd 19a0 2bbe e689 69be 057c 2dbe
000003a0: 8c87 423e b1cc 14be 0d92 bcba c9db 66be
000003b0: bfff c7bc b1ba 15be 6d1f a3bd 293e 393e
000003c0: 80df 0e3e f18c 913d bcf3 623e f9d8 ad3e
000003d0: 6033 723d 2684 c5bb 9c77 413e 55cc 85be
000003e0: d48e 22be f826 5f3d c487 c6be 3d1c 26be
000003f0: 6362 34be f1c3 d9be 32de f1be e39e 0cbe

conv3.bias f4 [16]
0.120155 -0.09157478 0.027759591 0.058528714 -0.09276863 -0.04158783 -0.033840567 0.2027674
-0.370102 -0.035577435 -0.263963 -0.051318433 0.0301779 0.115796946 -0.1160405 -0.23506021
00000000: d313 f63d 8f8b bbbd 1568 e33c cebb 6f3d
00000010: 7bfd bdbd 0058 2abd 689c 0abd 42a2 4f3e
00000020: 027e bdbe a5b9 11bd 2926 87be 4733 52bd
00000030: a537 f73c f326 ed3d a4a6 edbd a0b3 70be

conv3.weight f4 [16, 6, 3, 3]
-0.23894559 0.17635867 -0.48219943 -0.007697086 0.25554577 0.063855514 -0.17637722 0.38756004
0.34480906 0.32642493 -0.113818705 -0.33071467 0.08190143 0.032650955 -0.22739959 0.1489984
0.16118312 -0.23871891 0.10019502 -0.1582694 0.53478885 0.06352213 -0.30319336 0.10420015
0.066642664 -0.16086513 -0.26276976 -0.48495486 -0.26608142 -0.5848568 -0.20553711 0.24960835
0.0866029 0.07086039 0.46857396 0.3162104 0.25473565 -0.15978584 -0.09805188 -0.23648281
-0.16040236 -0.3805461 -0.3857528 -0.42327142 -0.49548805 -0.17352483 0.2649337 0.11001768
-0.12413463 -0.019000797 0.13094391 -0.3042721 -0.086948045 -0.012193497 -0.46884838 -0.21917751
0.40067577 -0.38915166 -0.10572153 0.2004154 -0.26805276 0.030416338 0.55088633 -0.34754583
-0.38120773 0.14029634 0.030329881 -0.21788932 0.29688498 -0.034068476 -0.06249969 0.1592527
0.27651986 -0.00017890874 -0.09569778 -0.097681165 -0.39333105 -0.2219545 -0.057674035 -0.16552474
0.09181579 -0.4863125 -0.37674627 -0.17364176 -0.40089607 -0.19526342 -0.13034678 -0.16577527
0.032730047 -0.18078232 0.013847286 -0.11694951 0.33972606 0.11934752 -0.17517352 -0.06783015
0.14278537 0.03766631 0.46694446 -0.3987056 0.10562205 0.13845432 -0.24152271 0.029519776
0.099002175 -0.13142858 0.056727797 0.40687516 -0.20111784 -0.1495687 0.022820162 -0.0040278733
-0.003485177 0.018272627 0.10396765 -0.08251133 -0.058410313 0.13099003 -0.041350253 -0.16249898
0.00017624929 -0.14059061 -0.022326833 0.11677168 0.115813054 0.00287132 -0.014703819 -0.14630967
-0.124869175 -0.09811875 -0.16148812 0.03028295 0.0024939084 0.14620927 0.22300482 -0.086447194
-0.13915169 -0.038795486 -0.1712361 0.08364835 0.013308675 -0.13319193 -0.11853174 -0.062517114
0.09332014 -0.046479672 -0.005961384 0.08570468 -0.06208907 -0.12868947 -0.11306454 -0.023617255
0.122350976 -0.055148564 -0.036161926 -0.14711267 0.13658029 0.09086258 -0.017413512 -0.015144672
0.042367063 0.18192805 -0.097464584 0.00032311096 -0.34680507 -0.034618326 0.1542996 -0.27500346
-0.09201079 0.09954645 -0.45112333 0.081060715 -0.012833397 -0.20062898 -0.084999375 0.02181581
-0.14239661 0.0052599683 0.00043157776 -0.1699838 -0.0050076614 -0.020504754 0.22478674 -0.010792005
-0.11495265 0.060689487 -0.043075822 -0.09727555 -0.20416161 -0.27197915 -0.011835598 -0.19386724
-0.03822584 0.15773937 -0.13272077 0.028059542 0.122939736 -0.24568997 0.5026446 -0.05769119
-0.26451808 0.3803031 -0.17574863 -0.26927656 -0.039110456 -0.0765195 -0.32569817 0.11355821
0.10918097 -0.1967484 -0.05624755 0.06275913 -0.1877388 0.124831684 -0.20923318 -0.21250057
-0.43328178 -0.007578572 0.15414344 -0.31244472 0.06637806 0.18905458 -0.15689537 0.34422687
0.2478073 -0.12590662 0.061715424 -0.16090901 0.0071456223 -0.010595467 -0.22364475 0.019338563
0.11213845 -0.13300732 0.24735445 -0.06304181 -0.7783355 0.25731915 -0.03242314 -0.39502686
0.23396134 0.04388704 -0.18045603 -0.013993184 -0.17652869 0.046201345 -0.22984132 -0.2104425
0.109631576 -0.23528007 -0.13076687 0.3058918 -0.15217467 0.5452763 -0.36361355 -0.071963005
00000000: 27ae 74be 5e97 343e d8e2 f6be d637 fcbb
00000010: e5d6 823e aec6 823d 3b9c 34be 456e c63e
00000020: d08a b03e 2b21 a73e c819 e9bd 6f53 a9be
00000030: f0bb a73d 02bd 053d 70db 68be 0993 183e
00000040: 300d 253e bb72 74be 0c33 cd3d 6011 22be
00000050: ece7 083f e417 823d 293c 9bbe e366 d53d
00000060: f37b 883d d4b9 24be c289 86be 014c f8be
00000070: d33b 88be 2db9 15bf 5278 52be 5599 7f3e
00000080: dc5c b13d 411f 913d ede8 ef3e 54e6 a13e
00000090: b66c 823e e69e 23be 6dcf c8bd 8d28 72be
000000a0: 8440 24be f0d6 c2be 6481 c5be 08b7 d8be
000000b0: 9cb0 fdbe 7eb0 31be 64a5 873e f350 e13d
000000c0: 4c3a febd 8fa7 9bbc 2916 063e 8dc9 9bbe
000000d0: d111 b2bd 3cc7 47bc e50c f0be 1270 60be
000000e0: 6025 cd3e e33e c7be 8884 d8bd b239 4d3e
000000f0: 363e 89be af2b f93c e306 0d3f 87f1 b1be
00000100: a92d c3be d8a9 0f3e 5f76 f83c 611e 5fbe
00000110: 4f01 983e 638b 0bbd adff 7fbd 2413 233e
00000120: 0394 8d3e 7399 3bb9 33fd c3bd 100d c8bd
00000130: b062 c9be 0a48 63be 9c3b 6cbd 517f 29be
00000140: eb09 bc3d f4fd f8be e3e4 c0be 25cf 31be
00000150: 4042 cdbe 22f3 47be a079 05be fec0 29be
00000160: f10f 063d 001f 39be badf 623c 3a83 efbd
00000170: 93f0 ad3e 796c f43d b060 33be 89ea 8abd
00000180: 5436 123e fd47 1a3d 5813 ef3e 2423 ccbe
00000190: 6050 d83d f8c6 0d3e bb51 77be 75d3 f13c
000001a0: a7c1 ca3d 3795 06be 685b 683d f151 d03e
000001b0: d6f1 4dbe 8a28 19be 59f1 ba3c 40fc 83bb
000001c0: 9167 64bb 7ab0 953c feec d43d b3fb a8bd
000001d0: a73f 6fbd 4022 063e e25e 29bd 2266 26be
000001e0: 8fcf 3839 fcf6 0fbe c3e6 b6bc fe25 ef3d
000001f0: 652f ed3d c12c 3c3b 49e8 70bc 34d2 15be
00000200: 69bb ffbd 7cf2 c8bd 245d 25be f313 f83c
00000210: d770 233b e2b7 153e 605b 643e 3a0b b1bd
00000220: c87d 0ebe 04e8 1ebd 8458 2fbe d34f ab3d
00000230: a10c 5a3c 7763 08be c5c0 f2bd f908 80bd
00000240: a11e bf3d 7861 3ebd b757 c3bb ef85 af3d
00000250: 1c51 7ebd 2cc7 03be 628e e7bd f978 c1bc
00000260: 2693 fa3d 76e3 61bd 871e 14bd b4a4 16be
00000270: b4db 0b3e 2916 ba3d c8a6 8ebc 5c21 78bc
00000280: 1689 2d3d 594b 3a3e 839b c7bd 3867 a939
00000290: 6f90 b1be f2cb 0dbd b700 1e3e 41cd 8cbe
000002a0: 2770 bcbd 02df cb3d a3f9 e6be 2903 a63d
000002b0: 2b43 52bc af71 4dbe 2714 aebd 12b7 b23c
000002c0: 6bd0 11be d05b ac3b 6345 e239 3c10 2ebe
000002d0: 4f17 a4bb 96f9 a7bc 7f2e 663e f3d0 30bc
000002e0: 4c6c ebbd 8a95 783d 4670 30bd 6738 c7bd
000002f0: be0f 51be da40 8bbe 19ea 41bc 2285 46be
00000300: b392 1cbd 6e86 213e f4e7 07be 20dd e53c
00000310: d4c7 fb3d 2796 7bbe 51ad 003f 994d 6cbd
00000320: ea6e 87be 17b7 c23e 73f7 33be 9ede 89be
00000330: 4932 20bd 41b6 9cbd e9c1 a6be 3591 e83d
00000340: 469a df3d 6a78 49be d563 66bd dc87 803d
00000350: 9a3e 40be c1a7 ff3d 3941 56be c099 59be
00000360: 1cd7 ddbe ab55 f8bb c7d7 1d3e c1f8 9fbe
00000370: 38f1 873d 8697 413e 2ea9 20be 813e b03e
00000380: 32c1 7d3e aaed 00be 50c9 7c3d 55c5 24be
00000390: d325 ea3b 9c98 2dbc 2103 65be e86b 9e3c
000003a0: d8a8 e53d 1233 08be 7c4a 7d3e 111c 81bd
000003b0: ff40 47bf 56bf 833e 20ce 04bd f640 cabe
000003c0: 9093 6f3e e6c2 333d 77c9 38be ab43 65bc
000003d0: f0c3 34be 9f3d 3d3d 865b 6bbe 3d7e 57be
000003e0: 8586 e03d 42ed 70be c0e7 05be da9d 9c3e
000003f0: add3 1bbe 3a97 0b3f 8e2b babe 5761 93bd

fc1.bias f4 [120]
0.018993981 -0.015018086 0.02134171 0.01974757 0.066580415 -0.000914603 0.11357719 0.00942866
0.11242317 0.019326352 0.01965151 0.09258664 0.0173317 0.07862088 0.07254072 -0.008026613
-0.008695407 0.0671629 0.07303553 0.008822803 -0.005006616 -0.010186763 0.030135125 0.018257776
0.022446377 0.042477895 0.0033518858 -0.07294115 0.059580907 -0.020211704 -0.043627232 0.01917751
-0.05914813 -0.028281035 -0.035778157 -0.070516646 0.09070925 0.06853676 0.045456205 -0.021683674
0.039657526 -0.0549651 -0.06502531 -0.028704528 0.04990346 -0.046120692 0.034662776 0.01433054
-0.022043517 -0.052046027 0.14008607 -0.012589402 0.03167316 0.0835925 0.008627119 0.048982885
-0.037631746 0.03368521 0.04666527 0.012572819 -0.051574625 -0.025338914 -0.019788653 0.020412229
-0.027547803 -0.027688345 -0.024594504 0.052987535 0.07006147 0.093156315 0.041206952 0.01675677
0.12875266 0.0048540146 0.07466743 -0.030874347 -0.054329924 0.036519002 -0.066679046 0.015724005
-0.032441795 -0.025206394 -0.0022646892 0.03938883 0.06716824 0.07677403 0.022631362 -0.058044195
0.038843367 -0.0053580725 0.04089124 0.08080514 -0.038978834 -0.056857646 -0.03562083 0.0005652917
-0.016279977 0.0054288073 -0.036565732 0.024582963 0.023083143 0.018387116 -0.03179941 0.043438505
-0.069094464 -0.02240879 0.024867833 0.06451665 -0.020502806 -0.0046430808 0.012662231 0.03639383
0.024572143 0.00072693743 -0.03164431 0.017291512 0.030547466 -0.023108652 -0.04516028 -0.08045694
00000000: 4499 9b3c 6b0e 76bc cfd4 ae3c a8c5 a13c
00000010: 505b 883d f8c1 6fba 289b e83d ab7a 1a3c
00000020: 1e3e e63d 4c52 9e3c 34fc a03c 109e bd3d
00000030: 36fb 8d3c fc03 a13d 3b90 943d 0e82 03bc
00000040: 2e77 0ebc b48c 893d a793 953d 858d 103c
00000050: 8a0e a4bb 61e6 26bc f0dd f63c 5591 953c
00000060: 77e1 b73c 4dfd 2d3d 50ab 5b3b 2b62 95bd
00000070: 1c0b 743d 0493 a5bc 78b2 32bd 271a 9d3c
00000080: 4f45 72bd a1ad e7bc 1e8c 12bd 086b 90bd
00000090: c5c5 b93d 005d 8c3d 4930 3a3d f6a1 b1bc
000000a0: ee6f 223d 1623 61bd fd2b 85bd c225 ebbc
000000b0: 9267 4c3d 0de9 3cbd 8efa 0d3d a4ca 6a3c
000000c0: 9b94 b4bc 372e 55bd b972 0f3e c743 4ebc
000000d0: b7bb 013d 8b32 ab3d c258 0d3c 47a2 483d
000000e0: bf23 1abd 81f9 093d 1524 3f3d 3afe 4d3c
000000f0: ea3f 53bd 8e93 cfbc d01b a2bc 8c37 a73c
00000100: eeab e1bc abd2 e2bc 6a7a c9bc 7509 593d
00000110: 637c 8f3d bdc8 be3d 9fc8 283d 7e45 893c
00000120: bdd7 033e 6d0e 9f3b 3deb 983d 33ec fcbc
00000130: 0e89 5ebd f394 153d 068f 88bd a1cf 803c
00000140: b0e1 04bd a47d cebc 2e6b 14bb 2f56 213d
00000150: 818f 893d b43b 9d3d 6865 b93c c0bf 6dbd
00000160: 391a 1f3d c592 afbb 937d 273d 2a7d a53d
00000170: 45a8 1fbd 90e3 68bd 26e7 11bd 1530 143a
00000180: 965d 85bc 23e4 b13b f3c5 15bd 3662 c93c
00000190: dc18 bd3c 94a0 963c 1940 02bd 93ec 313d
000001a0: 6681 8dbd a492 b7bc a0b7 cb3c 4e21 843d
000001b0: 80f5 a7bc fc24 98bb 3f75 4f3c b211 153d
000001c0: 854b c93c f28f 3e3a 779d 01bd eea6 8d3c
000001d0: ae3e fa3c 5b4e bdbc fcf9 38bd 9cc6 a4bd

fc1.weight f4 [120, 400]
-0.04493605 -0.088028 -0.008598871 0.24538471 0.06975453 -0.03728505 0.05340062 0.1375263
0.21535018 0.09844429 -0.04712467 0.036927912 -0.090797804 0.06284575 0.13224342 -0.0505579
-0.03432218 -0.13230285 -0.037864935 0.028889997 0.03973237 -0.061105542 -0.1397385 -0.13146554
-0.0149882445 0.006528588 0.011484 0.002144399 -0.042050928 -0.03782939 0.0026584263 0.028096752
-0.03358435 -0.07625634 -0.015023417 -0.08459303 -0.066968314 -0.02497997 0.03331726 -0.074204
0.0037434131 -0.02321988 -0.004292907 -0.04425428 -0.041730653 -0.002968714 -0.015958177 0.025801418
0.029935418 0.046115737 0.047836762 0.0052011022 -0.019990297 -0.0072679184 -0.006110247 0.014978898
0.030657232 -0.013952905 0.012744305 -0.027590385 0.030954173 -0.01881096 0.037605073 -0.04888776
-0.020717734 -0.0056901225 0.009210768 0.022220429 -0.034940872 -0.023350218 0.031260118 0.038791716
-0.042288303 -0.01550003 0.019269545 -0.06865385 -0.05020381 0.0013753398 -0.0063755517 0.019200686
-0.008775102 0.025078658 -0.024367508 0.040367864 0.018491196 0.016918238 -0.0402775 -0.034660228
0.01723144 0.062461197 0.048126303 -0.038060192 -0.108605586 -0.040897984 0.022298522 0.035473272
0.019759934 -0.078130245 -0.07842152 -0.0048691 -0.008638411 -0.04494698 0.030505322 0.10353284
0.061228734 -0.061935123 0.011649561 -0.029796338 0.11365384 0.03744889 -0.10581456 -0.038888115
-0.054471545 -0.022769654 0.07588293 -0.032191154 -0.05153655 -0.0025566432 0.026251089 0.10493602
0.015380145 -0.049067635 -0.04408328 0.09107265 0.047844242 -0.07564996 -0.25890782 0.046831734
0.14149372 0.04015267 -0.24309225 -0.34192055 0.02312323 0.1834486 0.22880778 -0.18253835
-0.26627597 -0.015153006 0.10702701 0.15900609 -0.08562416 -0.19152658 -0.11106233 0.033311244
0.2830563 -0.10980311 -0.082542114 -0.045859035 0.009102011 0.211995 0.056121174 0.05211305
0.08302511 0.03032143 -0.016274683 -0.006756754 0.029404173 0.04225834 0.10219064 6.545036e-05
0.03424107 -0.0056246407 0.049912244 -0.016693763 -0.046995822 -0.023155559 -0.026551656 -0.050805677
0.0035865735 -0.00390868 0.02418148 0.02320853 0.039680365 -0.04882287 -0.04630226 0.07541659
0.018563377 -0.0005426317 0.07705337 0.026374847 -0.05345764 -0.055016417 -0.091634 0.031179816
0.042023055 0.02385374 0.015885787 -0.035473697 0.012097917 0.072491616 -0.07072996 0.005032791
0.04946733 0.012558149 0.034684155 -0.10173459 -0.01975514 0.073545344 0.09823581 0.19337471
-0.020659253 0.108205155 0.18538883 0.049703993 0.027057635 0.043436613 0.01672402 -0.042592157
0.04031439 -0.004977316 -0.04601431 -0.08098265 -0.15107182 -0.08129833 -0.095738046 0.0066702915
0.060774144 -0.10953635 -0.030620206 -0.13727312 0.038972575 -0.07649668 -0.17837605 -0.19155474
-0.04468096 -0.048460074 -0.11766916 -0.10254519 0.12997302 0.08118954 -0.10631332 -0.105486535
-0.035552688 0.09591767 0.19337595 -0.079400845 -0.040887874 -0.05093364 0.10294569 0.16859347
-0.18379821 -0.11530539 -0.08337322 -0.07721937 0.047282267 -0.19250213 -0.042757846 0.07402362
0.12193712 -0.02244024 0.035207 -0.029480543 0.01581601 -0.011134567 -0.020150533 -0.023534777
00000000: dd0e 38bd 0648 b4bd 47e2 0cbc 2146 7b3e
00000010: 77db 8e3d 35b8 18bd 9cba 5a3d b2d3 0c3e
00000020: c284 5c3e 299d c93d cc05 41bd b941 173d
00000030: 33f4 b9bd 46b5 803d d26a 073e cd15 4fbd
00000040: 6a95 0cbd 667a 07be 4318 1bbd b7aa ec3c
00000050: 69be 223d ce49 7abd 9c17 0fbe e79e 06be
00000060: 4191 75bc c4ed d53b 6327 3c3c 0c89 0c3b
00000070: 983d 2cbd fef2 1abd fe38 2e3b 292b e63c
00000080: be8f 09bd 492c 9cbd c724 76bc 1c3f adbd
00000090: af26 89bd cba2 ccbc ae77 083d 44f8 97bd
000000a0: 0d54 753b 9e37 bebc 84ab 8cbb fa43 35bd
000000b0: c3ed 2abd c28e 42bb b9ba 82bc 7f5d d33c
000000c0: 1f3b f53c dbe3 3c3d 7bf0 433d 026e aa3b
000000d0: b1c2 a3bc b827 eebb 7838 c8bb 0d6a 753c
000000e0: e024 fb3c ba9a 64bc 7dcd 503c 3b05 e2bc
000000f0: 9b93 fd3c 7119 9abc c707 1a3d 883e 48bd
00000100: 3db8 a9bc 3574 babb c3e8 163c 9e07 b63c
00000110: 291e 0fbd f548 bfbc 9c0a 003d 10e4 1e3d
00000120: 8036 2dbd d6f3 7dbc 2adb 9d3c 649a 8cbd
00000130: 83a2 4dbd bf44 b43a 01ea d0bb c24a 9d3c
00000140: 72c5 0fbc c271 cd3c 5e9e c7bc c658 253d
00000150: d97a 973c 1e98 8a3c 05fa 24bd e2f7 0dbd
00000160: f328 8d3c 50d7 7f3d 1620 453d 01e5 1bbd
00000170: 9b6c debd a584 27bd 64ab b63c 6c4c 113d
00000180: 96df a13c c002 a0bd 769b a0bd f98c 9fbb
00000190: 1f88 0dbc 531a 38bd 4ce6 f93c 0709 d43d
000001a0: fbca 7a3d afaf 7dbd cddd 3e3c 7317 f4bc
000001b0: 58c3 e83d 0264 193d 4eb5 d8bd 2549 1fbd
000001c0: 8e1d 5fbd 6d87 babc 8268 9b3d dfda 03bd
000001d0: fd17 53bd 5b8d 27bb 860c d73c b2e8 d63d
000001e0: 01fd 7b3c 25fb 48bd ab90 34bd 4c84 ba3d
000001f0: 53f8 433d 5eee 9abd 918f 84be a2d2 3f3d
00000200: bbe3 103e 2077 243d 2ded 78be 3610 afbe
00000210: ee6c bd3c f3d9 3b3e 964c 6a3e 55eb 3abe
00000220: 5355 88be 5044 78bc fa30 db3d 7ed2 223e
00000230: b85b afbd 8b1f 44be a674 e3bd 5f71 083d
00000240: c1ec 903e 74e0 e0bd d70b a9bd afd6 3bbd
00000250: 9a20 153c 3815 593e 51df 653d 7e74 553d
00000260: 1209 aa3d a664 f83c 7c52 85bc c367 ddbb
00000270: 05e1 f03c 1517 2d3d 5449 d13d 6542 8938
00000280: 5d40 0c3d e84e b8bb c870 4c3d 5cc1 88bc
00000290: b17e 40bd bab0 bdbc dc82 d9bc 9d19 50bd
000002a0: b80c 6b3b 6214 80bb 3d18 c63c d11f be3c
000002b0: e187 223d 7dfa 47bd 70a7 3dbd 0374 9a3d
000002c0: 3912 983c 663f 0eba 28ce 9d3d 1010 d83c
000002d0: 66f6 5abd e558 61bd 9baa bbbd d06c ff3c
000002e0: 5e20 2c3d eb68 c33c e922 823c de4c 11bd
000002f0: 5736 463c 7c76 943d dfda 90bd 1cea a43b
00000300: 419e 4a3d b2c0 4d3c f910 0e3d 3a5a d0bd
00000310: 88d5 a1bc f19e 963d db2f c93d 0504 463e
00000320: 983d a9bc aa9a dd3d 92d6 3d3e 6a96 4b3d
00000330: f9a7 dd3c 97ea 313d d000 893c 1d75 2ebd
00000340: b420 253d c118 a3bb 8079 3cbd 3bda a5bd
00000350: 92b2 1abe bd7f a6bd 4f12 c4bd 7692 da3b
00000360: 4fee 783d 9854 e0bd 3ad7 fabc 5391 0cbe
00000370: b5a1 1f3d 4baa 9cbd 36a8 36be ed26 44be
00000380: 6203 37bd 127e 46bd 87fc f0bd 3603 d2bd
00000390: a617 053e b446 a63d ccba d9bd 5309 d8bd
000003a0: b29f 11bd 7c70 c43d 5804 463e e99c a2bd
000003b0: 0b7a 27bd cb9f 50bd 31d5 d23d c4a3 2c3e
000003c0: 9935 3cbe 3b25 ecbd 94bf aabd 3025 9ebd
000003d0: 0dab 413d 471f 45be da22 2fbd b299 973d
000003e0: 2bba f93d 98d4 b7bc 3735 103d 2e81 f1bc
000003f0: 9490 813c c26d 36bc bb12 a5bc 01cc c0bc

fc2.bias f4 [48]
0.14853919 0.054040983 -0.03352275 -0.031208888 0.15954734 0.25749245 0.23450585 -0.055179894
-0.10723996 -0.1246295 -0.021509614 -0.14648704 0.077453084 0.11355071 -0.008655744 0.21200642
0.21257387 -0.02681437 0.03177165 0.023424333 0.19901778 0.07458773 0.062720686 0.14372513
0.07748239 -0.034744877 -0.058034975 -0.023169646 0.020762771 -0.055577625 0.023990395 -0.046440307
-0.020528752 0.17972796 -0.081666775 0.098228924 -0.014472524 0.11822643 0.043824647 0.0134462835
-0.046823274 -0.047399335 0.021957735 0.055164564 -0.032376185 0.02327429 -0.028147051 0.1522319
00000000: a81a 183e 145a 5d3d 274f 09bd c8a9 ffbc
00000010: 6160 233e 0dd6 833e 4d22 703e 5004 62bd
00000020: a0a0 dbbd c03d ffbd ee34 b0bc b300 16be
00000030: b99f 9e3d 468d e83d d2d0 0dbc 3618 593e
00000040: f7ac 593e cfa9 dbbc fd22 023d 63e4 bf3c
00000050: 51cb 4b3e 74c1 983d b473 803d ae2c 133e
00000060: 16af 9e3d a550 0ebd 15b6 6dbd 45ce bdbc
00000070: b016 aa3c 5da5 63bd 8187 c43c 3138 3ebd
00000080: ea2b a8bc 9b0a 383e e940 a7bd 3f2c c93d
00000090: 2a1e 6dbc b320 f23d 7981 333d cd4d 5c3c
000000a0: c3c9 3fbd ce25 42bd b5e0 b33c 3df4 613d
000000b0: e49c 04bd b9a9 be3c a594 e6bc aee2 1b3e

fc2.weight f4 [48, 120]
0.16352095 0.08161719 0.1922221 -0.040913366 0.21903518 -0.08686995 0.08242634 -0.035979394
-0.046626948 -0.021676555 0.32935035 -0.31695983 -0.12579858 -0.080814496 0.022939188 -0.14940016
-0.07405943 -0.39795926 0.119303875 -0.17320308 -0.19448265 -0.12754066 -0.18572427 0.19924015
0.1400189 0.019267814 -0.105085425 0.09536108 -0.027916972 0.028049096 0.03563927 0.06615077
-0.21480024 0.06126255 0.053812884 -0.288914 0.100836046 0.0045352457 -0.059795745 0.024213266
0.028431965 -0.026949469 -0.27662504 0.16372791 0.0031648758 -0.041641492 0.080191895 0.084386505
-0.013512594 -0.014854036 0.20805924 0.019554077 0.05632752 -0.080478676 -0.3305937 0.004926648
-0.00012565187 -0.15363033 0.041526273 -0.19456868 -0.013667424 0.038539343 -0.21446395 -0.0028539307
-0.38463598 0.15206794 -0.19114855 -0.2146509 0.06988251 0.17230709 -0.10168527 -0.10473701
-0.06504904 0.09530148 -0.13777092 0.025789386 -0.06048245 0.080174975 -0.20285706 0.14572452
-0.14458264 0.13140012 -0.031352993 -0.31267554 -0.062613875 0.1792692 -0.005362092 -0.14015228
-0.18425526 0.0040849987 -0.03286867 -0.01746623 -0.037349273 -0.14631338 0.01578593 0.013292207
-0.08847529 0.31491154 0.21752673 -0.07164133 0.31596693 -0.20955202 -0.11269781 -0.025243988
0.11239718 -0.25038368 -0.03688526 0.016838841 -0.083818115 0.15705578 -0.046939433 0.13818336
-0.19570354 0.13355795 0.10475313 0.11509197 -0.15549882 0.0107735 0.06922065 0.14280829
-0.10607142 -0.014788534 0.14742766 -0.017438298 -0.08449417 -0.16884024 -0.048050053 -0.17701906
-0.06721313 -0.05616819 -0.08574502 0.09976394 0.14528386 0.056671478 -0.04017077 0.11025325
-0.14370772 0.03172953 0.06229673 0.09326498 0.0177349 -0.17155156 -0.07547288 -0.08374058
0.07209877 -0.08198769 -0.07496495 -0.24894735 0.04256953 -0.13147576 0.051288277 -0.012974545
0.13380164 -0.10044464 9.2390845e-05 0.012247284 0.12306046 -0.07393857 -0.11163768 -0.19671291
-0.17260048 0.06997894 -0.0016406118 0.04090571 0.04987756 -0.04796445 0.13659468 0.06344088
-0.057183556 -0.0406173 -0.1694532 0.0039479933 -0.09749281 -0.046170734 -0.06235812 -0.054616548
0.042810727 -0.046131972 -0.029880248 -0.17963107 -0.07415355 0.08244693 0.17371653 0.14039797
-0.056910913 -0.16128747 0.26664436 0.07992342 0.043048956 -0.05647369 -0.05442905 -0.050345134
-0.11549684 0.18466322 0.025158556 0.021080505 0.01921048 -0.061100125 -0.08820601 0.059169535
-0.13723679 -0.10150026 0.0026022573 -0.01103526 -0.15201169 0.07103798 0.029415546 -0.109743126
-0.0138237495 -0.14228478 -0.06866996 0.123436056 0.253957 0.10988864 -0.06512393 -0.067556
0.07091072 -0.13689955 -0.0109599745 -0.05667471 0.06043916 0.1409849 -0.20190941 -0.07841828
0.018545944 0.023112249 0.010219486 0.15710133 -0.025114732 0.14989658 -0.097921245 -0.10450738
-0.08792384 0.095758684 -0.09231944 -0.08589587 -0.011505288 0.0560277 0.0024040402 -0.08695453
-0.12212245 -0.013895727 -0.03887824 -0.10272529 -0.05014263 -0.032315284 -0.04976732 0.02285405
0.048952352 -0.043813013 -0.039312012 -0.011999057 0.06576029 -0.07387761 -0.090728216 0.13667083
00000000: 0972 273e ea26 a73d dfd5 443e c694 27bd
00000010: c24a 603e dfe8 b1bd 24cf a83d 215f 13bd
00000020: e6fb 3ebd 0893 b1bc 9ca0 a83e 8f48 a2be
00000030: 58d1 00be 1282 a5bd f7ea bb3c 5bfc 18be
00000040: 78ac 97bd 51c1 cbbe 9755 f43d 265c 31be
00000050: 7626 47be 059a 02be 812e 3ebe 9c05 4c3e
00000060: 1d61 0f3e 89d7 9d3c 0737 d7bd ab4c c33d
00000070: 22b2 e4bc 38c7 e53c 7cfa 113d 0e7a 873d
00000080: 98f4 5bbe 71ee 7a3d e66a 5c3d 89ec 93be
00000090: 2183 ce3d 669c 943b 62ec 74bd e65a c63c
000000a0: 27ea e83c 22c5 dcbc cca1 8dbe 4aa8 273e
000000b0: ce69 4f3b 4590 2abd a63b a43d d5d2 ac3d
000000c0: ed63 5dbc 585e 73bc 7b0d 553e df2f a03c
000000d0: b0b7 663d 01d2 a4bd 9443 a9be b86f a13b
000000e0: 6bc1 03b9 4551 1dbe 7417 2a3d 033d 47be
000000f0: 55ed 5fbc 6edb 1d3d 709c 5bbe 0309 3bbb
00000100: 02ef c4be b3b7 1b3e 72bc 43be 72cd 5bbe
00000110: 901e 8f3d 4571 303e 5e40 d0bd 5c80 d6bd
00000120: 6e38 85bd 6c2d c33d d213 0dbe 4344 d33c
00000130: 72bc 77bd c732 a43d c3b9 4fbe cf38 153e
00000140: 790d 14be c18d 063e ff6b 00bd 0217 a0be
00000150: b43b 80bd 5892 373e 7db4 afbb 1484 0fbe
00000160: 69ad 3cbe 74db 853b 4ca1 06bd 5715 8fbc
00000170: 8dfb 18bd 2dd3 15be 7f51 813c 8fc7 593c
00000180: 8832 b5bd 163c a13e 54bf 5e3e b1b8 92bd
00000190: 6bc6 a13e ce94 56be 1cce e6bd 7bcc cebc
000001a0: 7e30 e63d 4a32 80be 0015 17bd 9cf1 893c
000001b0: d5a8 abbd 3bd3 203e 9043 40bd f07f 0d3e
000001c0: 8266 48be 6ac3 083e cf88 d63d 57b5 eb3d
000001d0: 153b 1fbe 5683 303c 8ec3 8d3d 563c 123e
000001e0: f93b d9bd 9b4b 72bc 47f7 163e c3da 8ebc
000001f0: 480b adbd 75e4 2cbe 22d0 44bd 7c44 35be
00000200: 0aa7 89bd 9e10 66bd 169b afbd 0951 cc3d
00000210: 4bc5 143e 5a20 683d 1b8a 24bd 75cc e13d
00000220: 1e28 13be d3f6 013d db2a 7f3d b601 bf3d
00000230: c848 913c 36ab 2fbe 8691 9abd 2e80 abbd
00000240: 85a8 933d 29e9 a7bd 3987 99bd 0eec 7ebe
00000250: 635d 2e3d 95a1 06be a813 523d 3093 54bc
00000260: 4c03 093e ebb5 cdbd f5c1 c138 d5a8 483c
00000270: 1f07 fc3d 1b6d 97bd 4ca2 e4bd 1c6f 49be
00000280: 2ebe 30be 1e51 8f3d cc09 d7ba bf8c 273d
00000290: 6a4c 4c3d 5f76 44bd 7adf 0b3e 4bed 813d
000002a0: 4e39 6abd 535e 26bd 2485 2dbe 2b5e 813b
000002b0: 4faa c7bd 861d 3dbd 3a6b 7fbd 9ab5 5fbd
000002c0: 4d5a 2f3d e1f4 3cbd 6cc7 f4bc 35f1 37be
000002d0: d1dd 97bd f0d9 a83d bfe2 313e 7cc4 0f3e
000002e0: 6b1b 69bd 8b28 25be 9c85 883e e4ae a33d
000002f0: 1a54 303d f550 67bd fff0 5ebd b336 4ebd
00000300: 9b89 ecbd 5b18 3d3e 5119 ce3c 06b1 ac3c
00000310: 4c5f 9d3c 2044 7abd 5aa5 b4bd c15b 723d
00000320: cd87 0cbe 5edf cfbd a28a 2a3b 3ccd 34bc
00000330: f4a8 1bbe 5c7c 913d dff8 f03c 01c1 e0bd
00000340: 027d 62bc 1ab3 11be d6a2 8cbd 0bcc fc3d
00000350: a706 823e 4c0d e13d b25f 85bd cd5a 8abd
00000360: a439 913d 652f 0cbe 7791 33bc be23 68bd
00000370: 0d8f 773d 585e 103e 57c1 4ebe c399 a0bd
00000380: aaed 973c e655 bd3c a26f 273c 2cdf 203e
00000390: 69bd cdbc 7d7e 193e ef8a c8bd f707 d6bd
000003a0: 6a11 b4bd 211d c43d f911 bdbd 2dea afbd
000003b0: ad80 3cbc 4d7d 653d 1a8d 1d3b 3715 b2bd
000003c0: 561b fabd e7aa 63bc ca3e 1fbd a361 d2bd
000003d0: 5c62 4dbd 085d 04bd d1d8 4bbd 6b38 bb3c
000003e0: 4382 483d 4675 33bd a205 21bd b197 44bc
000003f0: 55ad 863d 254d 97bd b7cf b9bd 70f3 0b3e

fc3.bias f4 [24]
-0.019211764 0.14159596 -0.08501467 0.0025711302 -0.23044105 0.03375747 0.06443114 0.064092875
0.12228432 -0.112307854 0.05156922 0.009717327 0.09115867 -0.16785787 0.11190598 -0.25314856
0.08116413 -0.095530294 0.307939 0.3130481 0.063804716 0.35230488 0.012224537 -0.15034893
00000000: fd61 9dbc 88fe 103e 2c1c aebd 6880 283b
00000010: bdf8 6bbe 4645 0a3d 79f4 833d 2043 833d
00000020: 3470 fa3d a901 e6bd 3f3a 533d 6c35 1f3c
00000030: 66b1 ba3d efe2 2bbe f62e e53d b09c 81be
00000040: 6139 a63d 63a5 c3bd 2eaa 9d3e d747 a03e
00000050: 0cac 823d 4e61 b43e 6d49 483c 12f5 19be

fc3.weight f4 [24, 48]
-0.119499594 0.10235724 -0.11479458 0.10650287 -0.25885293 -0.3426215 -0.030848881 0.021484816
-0.07721682 0.1576253 -0.20736498 -0.11213696 0.87470585 -0.2805994 -0.09645046 -0.14010383
0.40992212 -0.12173346 0.0021263068 -0.21208578 -0.23155136 -0.11644218 -0.30530494 -0.32255682
-0.15533504 -0.08725194 -0.1150326 0.20313674 -0.054577768 -0.0038409065 -0.25256503 -0.07250831
0.07238709 0.47288427 -0.10536142 -0.13370073 0.018603945 -0.063908465 -0.07529923 0.19277085
-0.030491497 0.11216186 0.108270854 0.31669858 -0.03768497 -0.12612417 -0.039961495 0.38659284
-0.16466942 0.06451031 0.094027005 0.18189491 -0.11118231 0.51809454 0.23005496 0.075868204
0.18142506 -0.18840225 0.10605263 -0.11652812 -0.44063446 0.030942004 -0.20476714 -0.23551267
0.46359944 -0.14040671 0.13924307 0.09621026 0.74063665 -0.19309177 0.2282956 -0.4145125
-0.037798908 -0.25531235 -0.2740754 -0.095294364 0.20021866 0.08459706 -0.026728466 -0.0562506
0.13460183 -0.2730718 -0.10806698 -0.31371605 -0.21273623 -0.25998664 -0.27281877 -0.36755705
-0.032909527 -0.0353145 0.032948572 -0.13082747 -0.12301525 0.013236875 -0.3112572 -0.07402902
-0.15522851 -0.17174795 -0.04110677 -0.16215958 -0.0148901045 -0.19956617 -0.44405589 0.4394112
-0.10640262 0.14401877 -0.12537931 -0.06742717 -0.17414795 0.015383626 0.18090278 -0.3117522
-0.061500806 -0.06222101 0.12309124 0.18689932 0.0026229937 -0.10728678 -0.06422729 -0.3519283
-0.10988394 0.6040109 -0.08853871 0.15403284 0.025833815 -0.007766243 0.55867124 0.2442216
0.10843859 0.07325325 -0.055181045 -0.22517829 0.15513843 0.21458009 -0.15242268 0.031347223
0.38639647 0.22786818 0.047873728 -0.043487705 -0.25546163 -0.048461832 0.15668476 -0.45800188
0.12501314 0.28369373 -0.045282286 0.3858406 -0.4376191 -0.42082176 0.16877273 0.46213505
0.17205735 -0.10294605 0.11795833 -0.21713622 -0.11209166 0.28056815 -0.048250634 0.19361576
-0.240247 -0.11253974 -0.05615314 0.15561347 0.25905848 0.31754532 -0.19620684 0.5501772
-0.29697034 -0.00012960598 0.5285731 -0.23049334 -0.05213754 -0.048786905 0.0666167 -0.12764314
-0.20496002 -0.1271459 0.15115201 -0.3080527 -0.2010033 -0.23275433 -0.20121351 0.018273441
-0.10259085 -0.22315408 -0.0133785615 0.6060648 -0.005552127 0.18544587 0.036502413 0.13634649
-0.14019278 0.08493781 0.07451634 -0.014419207 -0.06277789 0.018924221 0.29147765 0.26921186
-0.19299015 -0.17769367 -0.072228365 0.110301934 -0.061720844 -0.2181153 0.11923514 -0.4177701
0.6212451 -0.35044244 0.12382312 0.15011604 0.29691583 -0.15219897 -0.12633263 -0.33399057
0.005881405 0.28508502 -0.2093624 0.29968634 0.0021803551 -0.120641485 0.0068414193 0.047978494
-0.100933634 -0.32112917 0.02855726 -0.12482708 -0.039580964 -0.21534993 -0.17523731 0.48931196
-0.18332143 -0.19824532 0.108624734 0.08298213 -0.23763727 -0.14640638 0.47020522 0.40340495
-0.030588487 -0.19959766 -0.05955283 -0.12464222 -0.092917606 0.20227191 -0.34381896 0.56122535
0.08400101 0.13224249 0.07855282 -0.20858486 -0.25613746 -0.3868167 -0.08517648 0.5860856
00000000: 34bc f4bd aca0 d13d 6c19 ebbd 2d1e da3d
00000010: 5f88 84be 166c afbe cbb6 fcbc ed00 b03c
00000020: da23 9ebd 8768 213e 7c57 54be 10a8 e5bd
00000030: b9ec 5f3f b9aa 8fbe d287 c5bd 6177 0fbe
00000040: 50e1 d13e 644f f9bd 8259 0b3b 042d 59be
00000050: cd1b 6dbe 3d79 eebd ee50 9cbe 2b26 a5be
00000060: 2610 1fbe 25b1 b2bd 3696 ebbd 1403 503e
00000070: f08c 5fbd b8b7 7bbb 3450 81be 3d7f 94bd
00000080: af3f 943d e31d f23e bac7 d7bd d8e8 08be
00000090: 4d67 983c 71e2 82bd 7c36 9abd b965 453e
000000a0: 4ec9 f9bc 1eb5 e53d 1cbd dd3d 5126 a23e
000000b0: 8e5b 1abd b226 01be aaae 23bd 7fef c53e
000000c0: 1a9f 28be fb1d 843d 3b91 c03d a942 3a3e
000000d0: 8db3 e3bd d8a1 043f 8793 6b3e ca60 9b3d
000000e0: 7ec7 393e 85ec 40be 1f32 d93d 4ca6 eebd
000000f0: d79a e1be 167a fd3c 7aae 51be 3c2a 71be
00000100: e85c ed3e c7c6 0fbe bc95 0e3e e309 c53d
00000110: 5d9a 3d3f d9b9 45be 52c6 693e fb3a d4be
00000120: 07d3 1abd 4db8 82be 9c53 8cbe b129 c3bd
00000130: 1f06 4d3e 3941 ad3d a8f5 dabc 0767 66bd
00000140: 10d5 093e 11d0 8bbe 3952 ddbd 649f a0be
00000150: 87d7 59be f81c 85be e7ae 8bbe 7030 bcbe
00000160: 24cc 06bd f0a5 10bd 15f5 063d a3f7 05be
00000170: 6bef fbbd 7adf 583c 1b5d 9fbe 879c 97bd
00000180: 39f4 1ebe b2de 2fbe 935f 28bd 290d 26be
00000190: a0f5 73bc 135b 4cbe 4b5b e3be 81fa e03e
000001a0: 9ee9 d9bd a879 133e 6f63 00be 4217 8abd
000001b0: d753 32be 9b0b 7c3c 943e 393e fc9d 9fbe
000001c0: 45e8 7bbd 75db 7ebd 4317 fc3d 8962 3f3e
000001d0: 88e6 2b3b 2cb9 dbbd 9989 83bd f22f b4be
000001e0: d50a e1bd 75a0 1a3f c853 b5bd c9ba 1d3e
000001f0: 70a1 d33c f87b febb 1405 0f3f 3a15 7a3e
00000200: 0d15 de3d cd05 963d 8505 62bd 2395 66be
00000210: 9cdc 1e3e e2ba 5b3e b114 1cbe f265 003d
00000220: c2d5 c53e 4756 693e 3e17 443d 2a20 32bd
00000230: decb 82be ea7f 46bd f871 203e 397f eabe
00000240: 7203 003e 4e40 913e eb79 39bd e68c c53e
00000250: 9c0f e0be f375 d7be c2d2 2c3e f79c ec3e
00000260: cd2f 303e 61d5 d2bd 2394 f13d f558 5ebe
00000270: 5090 e5bd a1a6 8f3e 75a2 45bd 3643 463e
00000280: 4f03 76be 3c7b e6bd d600 66bd 2359 1f3e
00000290: 50a3 843e 4d95 a23e 72ea 48be 6ad8 0c3f
000002a0: 7f0c 98be d7e6 07b9 9150 073f 7206 6cbe
000002b0: 2c8e 55bd c7d4 47bd 566e 883d e2b4 02be
000002c0: 0ae1 51be 8932 02be 98c7 1a3e 15b9 9dbe
000002d0: cfd3 4dbe 2757 6ebe ea0a 4ebe 2fb2 953c
000002e0: 271b d2bd 8182 64be c131 5bbc 1027 1b3f
000002f0: 9eee b5bb 86e5 3d3e 8e83 153d 6a9e 0b3e
00000300: b28e 0fbe e0f3 ad3d 069c 983d 8a3e 6cbc
00000310: b291 80bd f806 9b3c 8f3c 953e 23d6 893e
00000320: 369f 45be 54f5 35be 77ec 93bd fbe5 e13d
00000330: ffce 7cbd 9e59 5fbe 8e31 f43d f6e5 d5be
00000340: eb09 1f3f 316d b3be fa96 fd3d 05b8 193e
00000350: 5a05 983e 0cda 1bbe 575d 01be d000 abbe
00000360: cdb8 c03b aaf6 913e 1963 56be 7d70 993e
00000370: 4ae4 0e3b e212 f7bd fc2d e03b 1985 443d
00000380: 4bb6 cebd 0b6b a4be eaf0 e93c 57a5 ffbd
00000390: a61f 22bd b184 5cbe 6971 33be 1987 fa3e
000003a0: 9db8 3bbe d200 4bbe a576 de3d 89f2 a93d
000003b0: 2f57 73be 8eeb 15be bdbe f03e 188b ce3e
000003c0: b594 fabc 5463 4cbe abed 73bd 6c44 ffbd
000003d0: 964b bebd 5e20 4f3e 0a09 b0be 77ac 0f3f
000003e0: b908 ac3d 936a 073e 4de0 a03d 4597 55be
000003f0: 7324 83be d70c c6be 0271 aebd b509 163f
